…
 https://github.com/Theano/Theano/wiki/Converting-to-the-new-gpu-back-end%28gpuarray%29

Using gpu device 0: GeForce GTX 1080 (CNMeM is disabled, cuDNN 6021)
/usr/local/lib/python2.7/dist-packages/theano/sandbox/cuda/__init__.py:631: UserWarning: Your cuDNN version is more recent than the one Theano officially supports. If you see any problems, try updating Theano or downgrading cuDNN to version 5.1.
  warnings.warn(warn)
Build model...
_________________________________________________________________
Layer (type)                 Output Shape              Param #   
=================================================================
embedding_1 (Embedding)      (None, 1000, 500)         1000000   
_________________________________________________________________
conv1d_1 (Conv1D)            (None, 998, 50)           75050     
_________________________________________________________________
global_max_pooling1d_1 (Glob (None, 50)                0         
_________________________________________________________________
dense_1 (Dense)              (None, 512)               26112     
_________________________________________________________________
dropout_1 (Dropout)          (None, 512)               0         
_________________________________________________________________
dense_2 (Dense)              (None, 512)               262656    
_________________________________________________________________
dropout_2 (Dropout)          (None, 512)               0         
_________________________________________________________________
dense_3 (Dense)              (None, 4)                 2052      
=================================================================
Total params: 1,365,870
Trainable params: 1,365,870
Non-trainable params: 0
_________________________________________________________________
Train...
1 #include <Python.h>
2 #include <iostream>
3 #include ""theano_mod_helper.h""
4 #include ""cuda_ndarray.cuh""
5 #include <math.h>
6 #include <numpy/arrayobject.h>
7 #include <numpy/arrayscalars.h>
…
