…
=0.4),\r\n\tL(T.ResizeShortestEdge)(short_edge_length=min_edge_range, sample_style=\"range\",max_size=max_size)\r\n]\r\ndataloader.train.mapper.image_format = \"RGB\"\r\n# recompute boxes due to cropping\r\ndataloader.train.mapper.recompute_boxes = True\r\n\r\ndataloader.test.mapper.augmentations = [\r\n\tL(T.ResizeShortestEdge)(short_edge_length=min_edge_range[1], max_size=max_size),\r\n]\r\ndataloader.test.mapper.recompute_boxes = True\r\n```\r\nHere's the model output during runtime:\r\n```\r\n[05/03 14:14:25 detectron2]: Model:\r\nGeneralizedRCNN(\r\n  (backbone): FPN(\r\n    (fpn_lateral2): Conv2d(256, 256, kernel_size=(1, 1), stride=(1, 1))\r\n    (fpn_output2): Conv2d(256, 256, kernel_size=(3, 3), stride=(1, 1), padding=(1, 1))\r\n    (fpn_lateral3): Conv2d(512, 256, kernel_size=(1, 1), stride=(1, 1))\r\n    (fpn_output3): Conv2d(256, 256, kernel_size=(3, 3), stride=(1, 1), padding=(1, 1))\r\n    (fpn_lateral4): Conv2d(1024, 256, kernel_size=(1, 1), stride=(1, 1))\r\n    (fpn_output4): Conv2d(256, 256, kernel_size=(3, 3), stride=(1, 1), padding=(1, 1))\r\n    (fpn_lateral5): Conv2d(2048, 256, kernel_size=(1, 1), stride=(1, 1))\r\n    (fpn_output5): Conv2d(256, 256, kernel_size=(3, 3), stride=(1, 1), padding=(1, 1))\r\n    (top_block): LastLevelMaxPool()\r\n    (bottom_up): ResNet(\r\n      (stem): BasicStem(\r\n        (conv1): Conv2d(\r\n          3, 64, kernel_size=(7, 7), stride=(2, 2), padding=(3, 3), bias=False\r\n          (norm): FrozenBatchNorm2d(num_features=64, eps=1e-05)\r\n        )\r\n      )\r\n      (res2): Sequential(\r\n        (0): BottleneckBlock(\r\n          (shortcut): Conv2d(\r\n            64, 256, kernel_size=(1, 1), stride=(1, 1), bias=False\r\n            (norm): FrozenBatchNorm2d(num_features=256, eps=1e-05)\r\n          )\r\n          (conv1): Conv2d(\r\n            64, 64, kernel_size=(1, 1), stride=(1, 1), bias=False\r\n            (norm): FrozenBatchNorm2d(num_features=64, eps=1e-05)\r\n          )\r\n          (conv2): Conv2d(\r\n            64, 64, kernel_size=(3, 3), stride=(1, 1), padding=(1, 1), bias=False\r\n            (norm): FrozenBatchNorm2d(num_features=64, eps=1e-05)\r\n          )\r\n          (conv3): Conv2d(\r\n            64, 256, kernel_size=(1, 1), stride=(1, 1), bias=False\r\n            (norm): FrozenBatchNorm2d(num_features=256, eps=1e-05)\r\n          )\r\n        )\r\n        (1): BottleneckBlock(\r\n          (conv1): Conv2d(\r\n            256, 64, kernel_size=(1, 1), stride=(1, 1), bias=False\r\n            (norm): FrozenBatchNorm2d(num_features=64, eps=1e-05)\r\n          )\r\n          (conv2): Conv2d(\r\n            64, 64, kernel_size=(3, 3), stride=(1, 1), padding=(1, 1), bias=False\r\n            (norm): FrozenBatchNorm2d(num_features=64, eps=1e-05)\r\n          )\r\n          (conv3): Conv2d(\r\n            64, 256, kernel_size=(1, 1), stride=(1, 1), bias=False\r\n            (norm): FrozenBatchNorm2d(num_features=256, eps=1e-05)\r\n          )\r\n        )\r\n        (2): BottleneckBlock(\r\n          (conv1): Conv2d(\r\n            256, 64, kernel_size=(1, 1), stride=(1, 1), bias=False\r\n            (norm): FrozenBatchNorm2d(num_features=64, eps=1e-05)\r\n          )\r\n          (conv2): Conv2d(\r\n            64, 64, kernel_size=(3, 3), stride=(1, 1), padding=(1, 1), bias=False\r\n            (norm): FrozenBatchNorm2d(num_features=64, eps=1e-05)\r\n          )\r\n          (conv3): Conv2d(\r\n            64, 256, kernel_size=(1, 1), stride=(1, 1), bias=False\r\n            (norm): FrozenBatchNorm2d(num_features=256, eps=1e-05)\r\n          )\r\n        )\r\n      )\r\n      (res3): Sequential(\r\n        (0): BottleneckBlock(\r\n          (shortcut): Conv2d(\r\n            256, 512, kernel_size=(1, 1), stride=(2, 2), bias=False\r\n            (norm): FrozenBatchNorm2d(num_features=512, eps=1e-05)\r\n          )\r\n          (conv1): Conv2d(\r\n            256, 128, kernel_size=(1, 1), stride=(2, 2), bias=False\r\n            (norm): FrozenBatchNorm2d(num_features=128, eps=1e-05)\r\n          )\r\n          (conv2): Conv2d(\r\n            128, 128, kernel_size=(3, 3), stride=(1, 1), padding=(1, 1), bias=False\r\n            (norm): FrozenBatchNorm2d(num_features=128, eps=1e-05)\r\n          )\r\n          (conv3): Conv2d(\r\n            128, 512, kernel_size=(1, 1), stride=(1, 1), bias=False\r\n            (norm): FrozenBatchNorm2d(num_features=512, eps=1e-05)\r\n          )\r\n        )\r\n        (1): BottleneckBlock(\r\n          (conv1): Conv2d(\r\n            512, 128, kernel_size=(1, 1), stride=(1, 1), bias=False\r\n            (norm): FrozenBatchNorm2d(num_features=128, eps=1e-05)\r\n          )\r\n          (conv2): Conv2d(\r\n            128, 128, kernel_size=(3, 3), stride=(1, 1), padding=(1, 1), bias=False\r\n            (norm): FrozenBatchNorm2d(num_features=128, eps=1e-05)\r\n          )\r\n          (conv3): Conv2d(\r\n            128, 512, kernel_size=(1, 1), stride=(1, 1), bias=False\r\n            (norm): FrozenBatchNorm2d(num_features=512, eps=1e-05)\r\n          )\r\n        )\r\n        (2): BottleneckBlock(\r\n          (conv1): Conv2d(\r\n            512, 128, kernel_size=(1, 1), stride=(1, 1), bias=False\r\n            (norm): FrozenBatchNorm2d(num_features=128, eps=1e-05)\r\n          )\r\n          (conv2): Conv2d(\r\n            128, 128, kernel_size=(3, 3), stride=(1, 1), padding=(1, 1), bias=False\r\n            (norm): FrozenBatchNorm2d(num_features=128, eps=1e-05)\r\n          )\r\n          (conv3): Conv2d(\r\n            128, 512, kernel_size=(1, 1), stride=(1, 1), bias=False\r\n            (norm): FrozenBatchNorm2d(num_features=512, eps=1e-05)\r\n          )\r\n        )\r\n        (3): BottleneckBlock(\r\n          (conv1): Conv2d(\r\n            512, 128, kernel_size=(1, 1), stride=(1, 1), bias=False\r\n            (norm): FrozenBatchNorm2d(num_features=128, eps=1e-05)\r\n          )\r\n          (conv2): Conv2d(\r\n            128, 128, kernel_size=(3, 3), stride=(1, 1), padding=(1, 1), bias=False\r\n            (norm): FrozenBatchNorm2d(num_features=128, eps=1e-05)\r\n          )\r\n          (conv3): Conv2d(\r\n            128, 512, kernel_size=(1, 1), stride=(1, 1), bias=False\r\n            (norm): FrozenBatchNorm2d(num_features=512, eps=1e-05)\r\n          )\r\n        )\r\n      )\r\n      (res4): Sequential(\r\n        (0): BottleneckBlock(\r\n          (shortcut): Conv2d(\r\n            512, 1024, kernel_size=(1, 1), stride=(2, 2), bias=False\r\n            (norm): FrozenBatchNorm2d(num_features=1024, eps=1e-05)\r\n          )\r\n          (conv1): Conv2d(\r\n            512, 256, kernel_size=(1, 1), stride=(2, 2), bias=False\r\n            (norm): FrozenBatchNorm2d(num_features=256, eps=1e-05)\r\n          )\r\n          (conv2): Conv2d(\r\n            256, 256, kernel_size=(3, 3), stride=(1, 1), padding=(1, 1), bias=False\r\n            (norm): FrozenBatchNorm2d(num_features=256, eps=1e-05)\r\n          )\r\n          (conv3): Conv2d(\r\n            256, 1024, kernel_size=(1, 1), stride=(1, 1), bias=False\r\n            (norm): FrozenBatchNorm2d(num_features=1024, eps=1e-05)\r\n          )\r\n        )\r\n        (1): BottleneckBlock(\r\n          (conv1): Conv2d(\r\n            1024, 256, kernel_size=(1, 1), stride=(1, 1), bias=False\r\n            (norm): FrozenBatchNorm2d(num_features=256, eps=1e-05)\r\n          )\r\n          (conv2): Conv2d(\r\n            256, 256, kernel_size=(3, 3), stride=(1, 1), padding=(1, 1), bias=False\r\n            (norm): FrozenBatchNorm2d(num_features=256, eps=1e-05)\r\n          )\r\n          (conv3): Conv2d(\r\n            256, 1024, kernel_size=(1, 1), stride=(1, 1), bias=False\r\n            (norm): FrozenBatchNorm2d(num_features=1024, eps=1e-05)\r\n          )\r\n        )\r\n        (2): BottleneckBlock(\r\n          (conv1): Conv2d(\r\n            1024, 256, kernel_size=(1, 1), stride=(1, 1), bias=False\r\n            (norm): FrozenBatchNorm2d(num_features=256, eps=1e-05)\r\n          )\r\n          (conv2): Conv2d(\r\n            256, 256, kernel_size=(3, 3), stride=(1, 1), padding=(1, 1), bias=False\r\n            (norm): FrozenBatchNorm2d(num_features=256, eps=1e-05)\r\n          )\r\n          (conv3): Conv2d(\r\n            256, 1024, kernel_size=(1, 1), stride=(1, 1), bias=False\r\n            (norm): FrozenBatchNorm2d(num_features=1024, eps=1e-05)\r\n          )\r\n        )\r\n        (3): BottleneckBlock(\r\n          (conv1): Conv2d(\r\n            1024, 256, kernel_size=(1, 1), stride=(1, 1), bias=False\r\n            (norm): FrozenBatchNorm2d(num_features=256, eps=1e-05)\r\n          )\r\n          (conv2): Conv2d(\r\n            256, 256, kernel_size=(3, 3), stride=(1, 1), padding=(1, 1), bias=False\r\n            (norm): FrozenBatchNorm2d(num_features=256, eps=1e-05)\r\n          )\r\n          (conv3): Conv2d(\r\n            256, 1024, kernel_size=(1, 1), stride=(1, 1), bias=False\r\n            (norm): FrozenBatchNorm2d(num_features=1024, eps=1e-05)\r\n          )\r\n        )\r\n        (4): BottleneckBlock(\r\n          (conv1): Conv2d(\r\n            1024, 256, kernel_size=(1, 1), stride=(1, 1), bias=False\r\n            (norm): FrozenBatchNorm2d(num_features=256, eps=1e-05)\r\n          )\r\n          (conv2): Conv2d(\r\n            256, 256, kernel_size=(3, 3), stride=(1, 1), padding=(1, 1), bias=False\r\n            (norm): FrozenBatchNorm2d(num_features=256, eps=1e-05)\r\n          )\r\n          (conv3): Conv2d(\r\n            256, 1024, kernel_size=(1, 1), stride=(1, 1), bias=False\r\n            (norm): FrozenBatchNorm2d(num_features=1024, eps=1e-05)\r\n          )\r\n        )\r\n        (5): BottleneckBlock(\r\n          (conv1): Conv2d(\r\n            1024, 256, kernel_size=(1, 1), stride=(1, 1), bias=False\r\n            (norm): FrozenBatchNorm2d(num_features=256, eps=1e-05)\r\n          )\r\n          (conv2): Conv2d(\r\n            256, 256, kernel_size=(3, 3), stride=(1, 1), padding=(1, 1), bias=False\r\n            (norm): FrozenBatchNorm2d(num_features=256, eps=1e-05)\r\n          )\r\n          (conv3): Conv2d(\r\n            256, 1024, kernel_size=(1, 1), stride=(1, 1), bias=False\r\n            (norm): FrozenBatchNorm2d(num_features=1024, eps=1e-05)\r\n          )\r\n        )\r\n      )\r\n      (res5): Sequential(\r\n        (0): BottleneckBlock(\r\n          (shortcut): Conv2d(\r\n            1024, 2048, kernel_size=(1, 1), stride=(2, 2), bias=False\r\n            (norm): FrozenBatchNorm2d(num_features=2048, eps=1e-05)\r\n          )\r\n          (conv1): Conv2d(\r\n            1024, 512, kernel_size=(1, 1), stride=(2, 2), bias=False\r\n            (norm): FrozenBatchNorm2d(num_features=512, eps=1e-05)\r\n          )\r\n          (conv2): Conv2d(\r\n            512, 512, kernel_size=(3, 3), stride=(1, 1), padding=(1, 1), bias=False\r\n            (norm): FrozenBatchNorm2d(num_features=512, eps=1e-05)\r\n          )\r\n          (conv3): Conv2d(\r\n            512, 2048, kernel_size=(1, 1), stride=(1, 1), bias=False\r\n            (norm): FrozenBatchNorm2d(num_features=2048, eps=1e-05)\r\n          )\r\n        )\r\n        (1): BottleneckBlock(\r\n          (conv1): Conv2d(\r\n            2048, 512, kernel_size=(1, 1), stride=(1, 1), bias=False\r\n            (norm): FrozenBatchNorm2d(num_features=512, eps=1e-05)\r\n          )\r\n          (conv2): Conv2d(\r\n            512, 512, kernel_size=(3, 3), stride=(1, 1), padding=(1, 1), bias=False\r\n            (norm): FrozenBatchNorm2d(num_features=512, eps=1e-05)\r\n          )\r\n          (conv3): Conv2d(\r\n            512, 2048, kernel_size=(1, 1), stride=(1, 1), bias=False\r\n            (norm): FrozenBatchNorm2d(num_features=2048, eps=1e-05)\r\n          )\r\n        )\r\n        (2): BottleneckBlock(\r\n          (conv1): Conv2d(\r\n            2048, 512, kernel_size=(1, 1), stride=(1, 1), bias=False\r\n            (norm): FrozenBatchNorm2d(num_features=512, eps=1e-05)\r\n          )\r\n          (conv2): Conv2d(\r\n            512, 512, kernel_size=(3, 3), stride=(1, 1), padding=(1, 1), bias=False\r\n            (norm): FrozenBatchNorm2d(num_features=512, eps=1e-05)\r\n          )\r\n          (conv3): Conv2d(\r\n            512, 2048, kernel_size=(1, 1), stride=(1, 1), bias=False\r\n            (norm): FrozenBatchNorm2d(num_features=2048, eps=1e-05)\r\n          )\r\n        )\r\n      )\r\n    )\r\n  )\r\n  (proposal_generator): RPN(\r\n    (rpn_head): StandardRPNHead(\r\n      (conv): Conv2d(\r\n        256, 256, kernel_size=(3, 3), stride=(1, 1), padding=(1, 1)\r\n        (activation): ReLU()\r\n      )\r\n      (objectness_logits): Conv2d(256, 3, kernel_size=(1, 1), stride=(1, 1))\r\n      (anchor_deltas): Conv2d(256, 12, kernel_size=(1, 1), stride=(1, 1))\r\n    )\r\n    (anchor_generator): DefaultAnchorGenerator(\r\n      (cell_anchors): BufferList()\r\n    )\r\n  )\r\n  (roi_heads): StandardROIHeads(\r\n    (box_pooler): ROIPooler(\r\n      (level_poolers): ModuleList(\r\n        (0): ROIAlign(output_size=(7, 7), spatial_scale=0.25, sampling_ratio=0, aligned=True)\r\n        (1): ROIAlign(output_size=(7, 7), spatial_scale=0.125, sampling_ratio=0, aligned=True)\r\n        (2): ROIAlign(output_size=(7, 7), spatial_scale=0.0625, sampling_ratio=0, aligned=True)\r\n        (3): ROIAlign(output_size=(7, 7), spatial_scale=0.03125, sampling_ratio=0, aligned=True)\r\n      )\r\n    )\r\n    (box_head): FastRCNNConvFCHead(\r\n      (flatten): Flatten(start_dim=1, end_dim=-1)\r\n      (fc1): Linear(in_features=12544, out_features=1024, bias=True)\r\n      (fc_relu1): ReLU()\r\n      (fc2): Linear(in_features=1024, out_features=1024, bias=True)\r\n      (fc_relu2): ReLU()\r\n    )\r\n    (box_predictor): FastRCNNOutputLayers(\r\n      (cls_score): Linear(in_features=1024, out_features=8, bias=True)\r\n      (bbox_pred): Linear(in_features=1024, out_features=28, bias=True)\r\n    )\r\n  )\r\n)\r\n```\r\n\r\n2. What exact command you run:\r\n```\r\npython lazyconfig_train_net.py --config-file config.py\r\n```\r\n3. __Full logs__ or other relevant observations:\r\n```\r\nTraceback (most recent call last):\r\n  File \"/home/ubuntu/Trainer/detectron2/detectron2/engine/train_loop.py\", line 149, in train\r\n    self.run_step(
…
me, cfg, False, output_folder)\r\n\r\n\r\n    os.makedirs(cfg.OUTPUT_DIR, exist_ok=True)\r\n    trainer = CocoTrainer(cfg)\r\n    trainer.resume_or_load(resume=False)\r\n    trainer.train()\r\n```\r\n2. What exact command you run:\r\n\r\nI'm training in PyCharm.\r\n\r\n4. __Full logs__ or other relevant observations:\r\n```\r\n[04/17 13:20:38 d2.data.datasets.coco]: Loaded 2952 images in COCO format from /Users/andreivicol/Doctorat/An1/YOLO/scripts/dataset/input/pTrain_masks/train.json\r\n[04/17 13:20:38 d2.engine.defaults]: Model:\r\nGeneralizedRCNN(\r\n  (backbone): FPN(\r\n    (fpn_lateral2): Conv2d(256, 256, kernel_size=(1, 1), stride=(1, 1))\r\n    (fpn_output2): Conv2d(256, 256, kernel_size=(3, 3), stride=(1, 1), padding=(1, 1))\r\n    (fpn_lateral3): Conv2d(512, 256, kernel_size=(1, 1), stride=(1, 1))\r\n    (fpn_output3): Conv2d(256, 256, kernel_size=(3, 3), stride=(1, 1), padding=(1, 1))\r\n    (fpn_lateral4): Conv2d(1024, 256, kernel_size=(1, 1), stride=(1, 1))\r\n    (fpn_output4): Conv2d(256, 256, kernel_size=(3, 3), stride=(1, 1), padding=(1, 1))\r\n    (fpn_lateral5): Conv2d(2048, 256, kernel_size=(1, 1), stride=(1, 1))\r\n    (fpn_output5): Conv2d(256, 256, kernel_size=(3, 3), stride=(1, 1), padding=(1, 1))\r\n    (top_block): LastLevelMaxPool()\r\n    (bottom_up): ResNet(\r\n      (stem): BasicStem(\r\n        (conv1): Conv2d(\r\n          3, 64, kernel_size=(7, 7), stride=(2, 2), padding=(3, 3), bias=False\r\n          (norm): FrozenBatchNorm2d(num_features=64, eps=1e-05)\r\n        )\r\n      )\r\n      (res2): Sequential(\r\n        (0): BottleneckBlock(\r\n          (shortcut): Conv2d(\r\n            64, 256, kernel_size=(1, 1), stride=(1, 1), bias=False\r\n            (norm): FrozenBatchNorm2d(num_features=256, eps=1e-05)\r\n          )\r\n          (conv1): Conv2d(\r\n            64, 64, kernel_size=(1, 1), stride=(1, 1), bias=False\r\n            (norm): FrozenBatchNorm2d(num_features=64, eps=1e-05)\r\n          )\r\n          (conv2): Conv2d(\r\n            64, 64, kernel_size=(3, 3), stride=(1, 1), padding=(1, 1), bias=False\r\n            (norm): FrozenBatchNorm2d(num_features=64, eps=1e-05)\r\n          )\r\n          (conv3): Conv2d(\r\n            64, 256, kernel_size=(1, 1), stride=(1, 1), bias=False\r\n            (norm): FrozenBatchNorm2d(num_features=256, eps=1e-05)\r\n          )\r\n        )\r\n        (1): BottleneckBlock(\r\n          (conv1): Conv2d(\r\n            256, 64, kernel_size=(1, 1), stride=(1, 1), bias=False\r\n            (norm): FrozenBatchNorm2d(num_features=64, eps=1e-05)\r\n          )\r\n          (conv2): Conv2d(\r\n            64, 64, kernel_size=(3, 3), stride=(1, 1), padding=(1, 1), bias=False\r\n            (norm): FrozenBatchNorm2d(num_features=64, eps=1e-05)\r\n          )\r\n          (conv3): Conv2d(\r\n            64, 256, kernel_size=(1, 1), stride=(1, 1), bias=False\r\n            (norm): FrozenBatchNorm2d(num_features=256, eps=1e-05)\r\n          )\r\n        )\r\n        (2): BottleneckBlock(\r\n          (conv1): Conv2d(\r\n            256, 64, kernel_size=(1, 1), stride=(1, 1), bias=False\r\n            (norm): FrozenBatchNorm2d(num_features=64, eps=1e-05)\r\n          )\r\n          (conv2): Conv2d(\r\n            64, 64, kernel_size=(3, 3), stride=(1, 1), padding=(1, 1), bias=False\r\n            (norm): FrozenBatchNorm2d(num_features=64, eps=1e-05)\r\n          )\r\n          (conv3): Conv2d(\r\n            64, 256, kernel_size=(1, 1), stride=(1, 1), bias=False\r\n            (norm): FrozenBatchNorm2d(num_features=256, eps=1e-05)\r\n          )\r\n        )\r\n      )\r\n      (res3): Sequential(\r\n        (0): BottleneckBlock(\r\n          (shortcut): Conv2d(\r\n            256, 512, kernel_size=(1, 1), stride=(2, 2), bias=False\r\n            (norm): FrozenBatchNorm2d(num_features=512, eps=1e-05)\r\n          )\r\n          (conv1): Conv2d(\r\n            256, 128, kernel_size=(1, 1), stride=(2, 2), bias=False\r\n            (norm): FrozenBatchNorm2d(num_features=128, eps=1e-05)\r\n          )\r\n          (conv2): Conv2d(\r\n            128, 128, kernel_size=(3, 3), stride=(1, 1), padding=(1, 1), bias=False\r\n            (norm): FrozenBatchNorm2d(num_features=128, eps=1e-05)\r\n          )\r\n          (conv3): Conv2d(\r\n            128, 512, kernel_size=(1, 1), stride=(1, 1), bias=False\r\n            (norm): FrozenBatchNorm2d(num_features=512, eps=1e-05)\r\n          )\r\n        )\r\n        (1): BottleneckBlock(\r\n          (conv1): Conv2d(\r\n            512, 128, kernel_size=(1, 1), stride=(1, 1), bias=False\r\n            (norm): FrozenBatchNorm2d(num_features=128, eps=1e-05)\r\n          )\r\n          (conv2): Conv2d(\r\n            128, 128, kernel_size=(3, 3), stride=(1, 1), padding=(1, 1), bias=False\r\n            (norm): FrozenBatchNorm2d(num_features=128, eps=1e-05)\r\n          )\r\n          (conv3): Conv2d(\r\n            128, 512, kernel_size=(1, 1), stride=(1, 1), bias=False\r\n            (norm): FrozenBatchNorm2d(num_features=512, eps=1e-05)\r\n          )\r\n        )\r\n        (2): BottleneckBlock(\r\n          (conv1): Conv2d(\r\n            512, 128, kernel_size=(1, 1), stride=(1, 1), bias=False\r\n            (norm): FrozenBatchNorm2d(num_features=128, eps=1e-05)\r\n          )\r\n          (conv2): Conv2d(\r\n            128, 128, kernel_size=(3, 3), stride=(1, 1), padding=(1, 1), bias=False\r\n            (norm): FrozenBatchNorm2d(num_features=128, eps=1e-05)\r\n          )\r\n          (conv3): Conv2d(\r\n            128, 512, kernel_size=(1, 1), stride=(1, 1), bias=False\r\n            (norm): FrozenBatchNorm2d(num_features=512, eps=1e-05)\r\n          )\r\n        )\r\n        (3): BottleneckBlock(\r\n          (conv1): Conv2d(\r\n            512, 128, kernel_size=(1, 1), stride=(1, 1), bias=False\r\n            (norm): FrozenBatchNorm2d(num_features=128, eps=1e-05)\r\n          )\r\n          (conv2): Conv2d(\r\n            128, 128, kernel_size=(3, 3), stride=(1, 1), padding=(1, 1), bias=False\r\n            (norm): FrozenBatchNorm2d(num_features=128, eps=1e-05)\r\n          )\r\n          (conv3): Conv2d(\r\n            128, 512, kernel_size=(1, 1), stride=(1, 1), bias=False\r\n            (norm): FrozenBatchNorm2d(num_features=512, eps=1e-05)\r\n          )\r\n        )\r\n      )\r\n      (res4): Sequential(\r\n        (0): BottleneckBlock(\r\n          (shortcut): Conv2d(\r\n            512, 1024, kernel_size=(1, 1), stride=(2, 2), bias=False\r\n            (norm): FrozenBatchNorm2d(num_features=1024, eps=1e-05)\r\n          )\r\n          (conv1): Conv2d(\r\n            512, 256, kernel_size=(1, 1), stride=(2, 2), bias=False\r\n            (norm): FrozenBatchNorm2d(num_features=256, eps=1e-05)\r\n          )\r\n          (conv2): Conv2d(\r\n            256, 256, kernel_size=(3, 3), stride=(1, 1), padding=(1, 1), bias=False\r\n            (norm): FrozenBatchNorm2d(num_features=256, eps=1e-05)\r\n          )\r\n          (conv3): Conv2d(\r\n            256, 1024, kernel_size=(1, 1), stride=(1, 1), bias=False\r\n            (norm): FrozenBatchNorm2d(num_features=1024, eps=1e-05)\r\n          )\r\n        )\r\n        (1): BottleneckBlock(\r\n          (conv1): Conv2d(\r\n            1024, 256, kernel_size=(1, 1), stride=(1, 1), bias=False\r\n            (norm): FrozenBatchNorm2d(num_features=256, eps=1e-05)\r\n          )\r\n          (conv2): Conv2d(\r\n            256, 256, kernel_size=(3, 3), stride=(1, 1), padding=(1, 1), bias=False\r\n            (norm): FrozenBatchNorm2d(num_features=256, eps=1e-05)\r\n          )\r\n          (conv3): Conv2d(\r\n            256, 1024, kernel_size=(1, 1), stride=(1, 1), bias=False\r\n            (norm): FrozenBatchNorm2d(num_features=1024, eps=1e-05)\r\n          )\r\n        )\r\n        (2): BottleneckBlock(\r\n          (conv1): Conv2d(\r\n            1024, 256, kernel_size=(1, 1), stride=(1, 1), bias=False\r\n            (norm): FrozenBatchNorm2d(num_features=256, eps=1e-05)\r\n          )\r\n          (conv2): Conv2d(\r\n            256, 256, kernel_size=(3, 3), stride=(1, 1), padding=(1, 1), bias=False\r\n            (norm): FrozenBatchNorm2d(num_features=256, eps=1e-05)\r\n          )\r\n          (conv3): Conv2d(\r\n            256, 1024, kernel_size=(1, 1), stride=(1, 1), bias=False\r\n            (norm): FrozenBatchNorm2d(num_features=1024, eps=1e-05)\r\n          )\r\n        )\r\n        (3): BottleneckBlock(\r\n          (conv1): Conv2d(\r\n            1024, 256, kernel_size=(1, 1), stride=(1, 1), bias=False\r\n            (norm): FrozenBatchNorm2d(num_features=256, eps=1e-05)\r\n          )\r\n          (conv2): Conv2d(\r\n            256, 256, kernel_size=(3, 3), stride=(1, 1), padding=(1, 1), bias=False\r\n            (norm): FrozenBatchNorm2d(num_features=256, eps=1e-05)\r\n          )\r\n          (conv3): Conv2d(\r\n            256, 1024, kernel_size=(1, 1), stride=(1, 1), bias=False\r\n            (norm): FrozenBatchNorm2d(num_features=1024, eps=1e-05)\r\n          )\r\n        )\r\n        (4): BottleneckBlock(\r\n          (conv1): Conv2d(\r\n            1024, 256, kernel_size=(1, 1), stride=(1, 1), bias=False\r\n            (norm): FrozenBatchNorm2d(num_features=256, eps=1e-05)\r\n          )\r\n          (conv2): Conv2d(\r\n            256, 256, kernel_size=(3, 3), stride=(1, 1), padding=(1, 1), bias=False\r\n            (norm): FrozenBatchNorm2d(num_features=256, eps=1e-05)\r\n          )\r\n          (conv3): Conv2d(\r\n            256, 1024, kernel_size=(1, 1), stride=(1, 1), bias=False\r\n            (norm): FrozenBatchNorm2d(num_features=1024, eps=1e-05)\r\n          )\r\n        )\r\n        (5): BottleneckBlock(\r\n          (conv1): Conv2d(\r\n            1024, 256, kernel_size=(1, 1), stride=(1, 1), bias=False\r\n            (norm): FrozenBatchNorm2d(num_features=256, eps=1e-05)\r\n          )\r\n          (conv2): Conv2d(\r\n            256, 256, kernel_size=(3, 3), stride=(1, 1), padding=(1, 1), bias=False\r\n            (norm): FrozenBatchNorm2d(num_features=256, eps=1e-05)\r\n          )\r\n          (conv3): Conv2d(\r\n            256, 1024, kernel_size=(1, 1), stride=(1, 1), bias=False\r\n            (norm): FrozenBatchNorm2d(num_features=1024, eps=1e-05)\r\n          )\r\n        )\r\n      )\r\n      (res5): Sequential(\r\n        (0): BottleneckBlock(\r\n          (shortcut): Conv2d(\r\n            1024, 2048, kernel_size=(1, 1), stride=(2, 2), bias=False\r\n            (norm): FrozenBatchNorm2d(num_features=2048, eps=1e-05)\r\n          )\r\n          (conv1): Conv2d(\r\n            1024, 512, kernel_size=(1, 1), stride=(2, 2), bias=False\r\n            (norm): FrozenBatchNorm2d(num_features=512, eps=1e-05)\r\n          )\r\n          (conv2): Conv2d(\r\n            512, 512, kernel_size=(3, 3), stride=(1, 1), padding=(1, 1), bias=False\r\n            (norm): FrozenBatchNorm2d(num_features=512, eps=1e-05)\r\n          )\r\n          (conv3): Conv2d(\r\n            512, 2048, kernel_size=(1, 1), stride=(1, 1), bias=False\r\n            (norm): FrozenBatchNorm2d(num_features=2048, eps=1e-05)\r\n          )\r\n        )\r\n        (1): BottleneckBlock(\r\n          (conv1): Conv2d(\r\n            2048, 512, kernel_size=(1, 1), stride=(1, 1), bias=False\r\n            (norm): FrozenBatchNorm2d(num_features=512, eps=1e-05)\r\n          )\r\n          (conv2): Conv2d(\r\n            512, 512, kernel_size=(3, 3), stride=(1, 1), padding=(1, 1), bias=False\r\n            (norm): FrozenBatchNorm2d(num_features=512, eps=1e-05)\r\n          )\r\n          (conv3): Conv2d(\r\n            512, 2048, kernel_size=(1, 1), stride=(1, 1), bias=False\r\n            (norm): FrozenBatchNorm2d(num_features=2048, eps=1e-05)\r\n          )\r\n        )\r\n        (2): BottleneckBlock(\r\n          (conv1): Conv2d(\r\n            2048, 512, kernel_size=(1, 1), stride=(1, 1), bias=False\r\n            (norm): FrozenBatchNorm2d(num_features=512, eps=1e-05)\r\n          )\r\n          (conv2): Conv2d(\r\n            512, 512, kernel_size=(3, 3), stride=(1, 1), padding=(1, 1), bias=False\r\n            (norm): FrozenBatchNorm2d(num_features=512, eps=1e-05)\r\n          )\r\n          (conv3): Conv2d(\r\n            512, 2048, kernel_size=(1, 1), stride=(1, 1), bias=False\r\n            (norm): FrozenBatchNorm2d(num_features=2048, eps=1e-05)\r\n          )\r\n        )\r\n      )\r\n    )\r\n  )\r\n  (proposal_generator): RPN(\r\n    (rpn_head): StandardRPNHead(\r\n      (conv): Conv2d(\r\n        256, 256, kernel_size=(3, 3), stride=(1, 1), padding=(1, 1)\r\n        (activation): ReLU()\r\n      )\r\n      (objectness_logits): Conv2d(256, 3, kernel_size=(1, 1), stride=(1, 1))\r\n      (anchor_deltas): Conv2d(256, 12, kernel_size=(1, 1), stride=(1, 1))\r\n    )\r\n    (anchor_generator): DefaultAnchorGenerator(\r\n      (cell_anchors): BufferList()\r\n    )\r\n  )\r\n  (roi_heads): StandardROIHeads(\r\n    (box_pooler): ROIPooler(\r\n      (level_poolers): ModuleList(\r\n        (0): ROIAlign(output_size=(7, 7), spatial_scale=0.25, sampling_ratio=0, aligned=True)\r\n        (1): ROIAlign(output_size=(7, 7), spatial_scale=0.125, sampling_ratio=0, aligned=True)\r\n        (2): ROIAlign(output_size=(7, 7), spatial_scale=0.0625, sampling_ratio=0, aligned=True)\r\n        (3): ROIAlign(output_size=(7, 7), spatial_scale=0.03125, sampling_ratio=0, aligned=True)\r\n      )\r\n    )\r\n    (box_head): FastRCNNConvFCHead(\r\n      (flatten): Flatten(start_dim=1, end_dim=-1)\r\n      (fc1): Linear(in_features=12544, out_features=1024, bias=True)\r\n      (fc_relu1): ReLU()\r\n      (fc2): Linear(in_features=1024, out_features=1024, bias=True)\r\n      (fc_relu2): ReLU()\r\n    )\r\n    (box_predictor): FastRCNNOutputLayers(\r\n      (cls_score): Linear(in_features=1024, out_features=2, bias=True)\r\n      (bbox_pred): Linear(in_features=1024, out_features=4, bias=True)\r\n    )\r\n  )\r\n)\r\n[04/17 13:20:38 d2.data.datasets.coco]: Loaded 2952 images in COCO format from /Users/andreivicol/Doctorat/An1/YOLO/scripts/dataset/input/pTrain_masks/train.json\r\n[04/17 13:20:38 d2.data.build]: Removed 8 images with no usable annotations. 2944 images left.\r\n[04/17 13:20:38 d2.data.build]: Distribution of instances among all 
…
AY: 0.0001\r\n  WEIGHT_DECAY_BIAS: null\r\n  WEIGHT_DECAY_NORM: 0.0\r\nTEST:\r\n  AUG:\r\n    ENABLED: false\r\n    FLIP: true\r\n    MAX_SIZE: 4000\r\n    MIN_SIZES:\r\n    - 400\r\n    - 500\r\n    - 600\r\n    - 700\r\n    - 800\r\n    - 900\r\n    - 1000\r\n    - 1100\r\n    - 1200\r\n  DETECTIONS_PER_IMAGE: 100\r\n  EVAL_PERIOD: 0\r\n  EXPECTED_RESULTS: []\r\n  KEYPOINT_OKS_SIGMAS: []\r\n  PRECISE_BN:\r\n    ENABLED: false\r\n    NUM_ITER: 200\r\nVERSION: 2\r\nVIS_PERIOD: 0\r\n\r\n[05/23 15:49:08 detectron2]: Full config saved to ./output/config.yaml\r\n\r\n          )\r\n          (conv3): Conv2d(\r\n            64, 256, kernel_size=(1, 1), stride=(1, 1), bias=False\r\n            (norm): FrozenBatchNorm2d(num_features=256, eps=1e-05)\r\n          )\r\n        )\r\n        (2): BottleneckBlock(\r\n          (conv1): Conv2d(\r\n            256, 64, kernel_size=(1, 1), stride=(1, 1), bias=False\r\n            (norm): FrozenBatchNorm2d(num_features=64, eps=1e-05)\r\n          )\r\n          (conv2): Conv2d(\r\n            64, 64, kernel_size=(3, 3), stride=(1, 1), padding=(1, 1), bias=False\r\n            (norm): FrozenBatchNorm2d(num_features=64, eps=1e-05)\r\n          )\r\n          (conv3): Conv2d(\r\n            64, 256, kernel_size=(1, 1), stride=(1, 1), bias=False\r\n            (norm): FrozenBatchNorm2d(num_features=256, eps=1e-05)\r\n          )\r\n        )\r\n      )\r\n      (res3): Sequential(\r\n        (0): BottleneckBlock(\r\n          (shortcut): Conv2d(\r\n            256, 512, kernel_size=(1, 1), stride=(2, 2), bias=False\r\n            (norm): FrozenBatchNorm2d(num_features=512, eps=1e-05)\r\n          )\r\n          (conv1): Conv2d(\r\n            256, 128, kernel_size=(1, 1), stride=(2, 2), bias=False\r\n            (norm): FrozenBatchNorm2d(num_features=128, eps=1e-05)\r\n          )\r\n          (conv2): Conv2d(\r\n            128, 128, kernel_size=(3, 3), stride=(1, 1), padding=(1, 1), bias=False\r\n            (norm): FrozenBatchNorm2d(num_features=128, eps=1e-05)\r\n          )\r\n          (conv3): Conv2d(\r\n            128, 512, kernel_size=(1, 1), stride=(1, 1), bias=False\r\n            (norm): FrozenBatchNorm2d(num_features=512, eps=1e-05)\r\n          )\r\n        )\r\n        (1): BottleneckBlock(\r\n          (conv1): Conv2d(\r\n            512, 128, kernel_size=(1, 1), stride=(1, 1), bias=False\r\n            (norm): FrozenBatchNorm2d(num_features=128, eps=1e-05)\r\n          )\r\n          (conv2): Conv2d(\r\n            128, 128, kernel_size=(3, 3), stride=(1, 1), padding=(1\r\n            256, 1024, kernel_size=(1, 1), stride=(1, 1), bias=False\r\n            (norm): FrozenBatchNorm2d(num_features=1024, eps=1e-05)\r\n          )\r\n        )\r\n        (1): BottleneckBlock(\r\n          (conv1): Conv2d(\r\n            1024, 256, kernel_size=(1, 1), stride=(1, 1), bias=False\r\n            (norm): FrozenBatchNorm2d(num_features=256, eps=1e-05)\r\n          )\r\n          (conv2): Conv2d(\r\n            256, 256, kernel_size=(3, 3), stride=(1, 1), padding=(1, 1), bias=False\r\n            (norm): FrozenBatchNorm2d(num_features=256, eps=1e-05)\r\n          )\r\n          (conv3): Conv2d(\r\n            256, 1024, kernel_size=(1, 1), stride=(1, 1), bias=False\r\n            (norm): FrozenBatchNorm2d(num_features=1024, eps=1e-05)\r\n          )\r\n        )\r\n        (2): BottleneckBlock(\r\n          (conv1): Conv2d(\r\n            1024, 256, kernel_size=(1, 1), stride=(1, 1), bias=False\r\n            (norm): FrozenBatchNorm2d(num_features=256, eps=1e-05)\r\n          )\r\n          (conv2): Conv2d(\r\n            256, 256, kernel_size=(3, 3), stride=(1, 1), padding=(1, 1), bias=False\r\n            (norm): FrozenBatchNorm2d(num_features=256, eps=1e-05)\r\n          )\r\n          (conv3): Conv2d(\r\n            256, 1024, kernel_size=(1, 1), stride=(1, 1), bias=False\r\n            (norm): FrozenBatchNorm2d(num_features=1024, eps=1e-05)\r\n          )\r\n        )\r\n        (3): BottleneckBlock(\r\n          (conv1): Conv2d(\r\n            1024, 256, kernel_size=(1, 1), stride=(1, 1), bias=False\r\n            (norm): FrozenBatchNorm2d(num_features=256, eps=1e-05)\r\n          )\r\n          (conv2): Conv2d(\r\n            256, 256, kernel_size=(3, 3), stride=(1, 1), padding=(1, 1), bias=False\r\n            (norm): FrozenBatchNorm2d(num_features=256, eps=1e-05)\r\n          )\r\n          (conv3): Conv2d(\r\n            256, 1024, kernel_size=(1, 1), stride=(1, 1), bias=False\r\n            (norm): FrozenBatchNorm2d(num_features=1024, eps=1e-05)\r\n          )\r\n        )\r\n        (4): BottleneckBl\r\n          )\r\n          (conv2): Conv2d(\r\n            512, 512, kernel_size=(3, 3), stride=(1, 1), padding=(1, 1), bias=False\r\n            (norm): FrozenBatchNorm2d(num_features=512, eps=1e-05)\r\n          )\r\n          (conv3): Conv2d(\r\n            512, 2048, kernel_size=(1, 1), stride=(1, 1), bias=False\r\n            (norm): FrozenBatchNorm2d(num_features=2048, eps=1e-05)\r\n          )\r\n        )\r\n        (2): BottleneckBlock(\r\n          (conv1): Conv2d(\r\n            2048, 512, kernel_size=(1, 1), stride=(1, 1), bias=False\r\n            (norm): FrozenBatchNorm2d(num_features=512, eps=1e-05)\r\n          )\r\n          (conv2): Conv2d(\r\n            512, 512, kernel_size=(3, 3), stride=(1, 1), padding=(1, 1), bias=False\r\n            (norm): FrozenBatchNorm2d(num_features=512, eps=1e-05)\r\n          )\r\n          (conv3): Conv2d(\r\n            512, 2048, kernel_size=(1, 1), stride=(1, 1), bias=False\r\n            (norm): FrozenBatchNorm2d(num_features=2048, eps=1e-05)\r\n          )\r\n        )\r\n      )\r\n    )\r\n  )\r\n  (proposal_generator): RPN(\r\n    (rpn_head): StandardRPNHead(\r\n      (conv): Conv2d(\r\n        256, 256, kernel_size=(3, 3), stride=(1, 1), padding=(1, 1)\r\n        (activation): ReLU()\r\n      )\r\n      (objectness_logits): Conv2d(256, 3, kernel_size=(1, 1), stride=(1, 1))\r\n      (anchor_deltas): Conv2d(256, 12, kernel_size=(1, 1), stride=(1, 1))\r\n    )\r\n    (anchor_generator): DefaultAnchorGenerator(\r\n      (cell_anchors): BufferList()\r\n    )\r\n  )\r\n  (roi_heads): StandardROIHeads(\r\n    (box_pooler): ROIPooler(\r\n      (level_poolers): ModuleList(\r\n        (0): ROIAlign(output_size=(7, 7), spatial_scale=0.25, sampling_ratio=0, aligned=True)\r\n        (1): ROIAlign(output_size=(7, 7), spatial_scale=0.125, sampling_ratio=0, aligned=True)\r\n        (2): ROIAlign(output_size=(7, 7), spatial_scale=0.0625, sampling_ratio=0, aligned=True)\r\n        (3): ROIAlign(output_size=(7, 7), spatial_scale=0.03125, sampling_ratio=0, aligned=True)\r\n      )\r\n    )\r\n    (box_head): FastRCNNConvFCHead(\r\n      (flatten): Flatten(start_dim=1, end_dim=-1)\r\n      (fc1): Linear(in_features=12544, out_features=1024, bias=True)\r\n      (fc_relu1): ReLU()\r\n      (fc2): Linear(in_features=1024, out_features=1024, bias=True)\r\n      (fc_relu2): ReLU()\r\n    )\r\n    (box_predictor): FastRCNNOutputLayers(\r\n      (cls_score): Linear(in_features=1024, out_features=81, bias=True)\r\n      (bbox_pred): Linear(in_features=1024, out_features=320, bias=True)\r\n    )\r\n    (mask_pooler): ROIPooler(\r\n      (level_poolers): ModuleList(\r\n        (0): ROIAlign(output_size=(14, 14), spatial_scale=0.25, sampling_ratio=0, aligned=True)\r\n        (1): ROIAlign(output_size=(14, 14), spatial_scale=0.125, sampling_ratio=0, aligned=True)\r\n        (2): ROIAlign(output_size=(14, 14), spatial_scale=0.0625, sampling_ratio=0, aligned=True)\r\n        (3): ROIAlign(output_size=(14, 14), spatial_scale=0.03125, sampling_ratio=0, aligned=True)\r\n      )\r\n    )\r\n    (mask_head): MaskRCNNConvUpsampleHead(\r\n      (mask_fcn1): Conv2d(\r\n        256, 256, kernel_size=(3, 3), stride=(1, 1), padding=(1, 1)\r\n        (activation): ReLU()\r\n      )\r\n      (mask_fcn2): Conv2d(\r\n        256, 256, kernel_size=(3, 3), stride=(1, 1), padding=(1, 1)\r\n        (activation): ReLU()\r\n      )\r\n      (mask_fcn3): Conv2d(\r\n        256, 256, kernel_size=(3, 3), stride=(1, 1), padding=(1, 1)\r\n        (activation): ReLU()\r\n      )\r\n      (mask_fcn4): Conv2d(\r\n        256, 256, kernel_size=(3, 3), stride=(1, 1), padding=(1, 1)\r\n        (activation): ReLU()\r\n      )\r\n      (deconv): ConvTranspose2d(256, 256, kernel_size=(2, 2), stride=(2, 2))\r\n      (deconv_relu): ReLU()\r\n      (predictor): Conv2d(256, 80, kernel_size=(1, 1), stride=(1, 1))\r\n    )\r\n  )\r\n)\r\n[05/23 15:49:30 d2.data.datasets.coco]: Loading datasets/coco/annotations/instances_train2017.json takes 18.03 seconds.\r\n[05/23 15:49:31 d2.data.datasets.coco]: Loaded 118287 images in COCO format from datasets/coco/annotations/instances_train2017.json\r\n[05/23 15:49:37 d2.data.build]: Removed 1021 images with no usable annotat
…
s.box_predictor.cls_score.{bias, weight}\r\nroi_heads.mask_head.deconv.{bias, weight}\r\nroi_heads.mask_head.mask_fcn1.{bias, weight}\r\nroi_heads.mask_head.mask_fcn2.{bias, weight}\r\nroi_heads.mask_head.mask_fcn3.{bias, weight}\r\nroi_heads.mask_head.mask_fcn4.{bias, weight}\r\nroi_heads.mask_head.predictor.{bias, weight}\r\nThe checkpoint state_dict contains keys that are not used by the model:\r\n  fc1000.{bias, weight}\r\n  stem.conv1.bias\r\n```\r\n\r\n## Full log \r\n```\r\nTrue\r\n[12/20 11:21:47 d2.engine.defaults]: Model:\r\nGeneralizedRCNN(\r\n  (backbone): FPN(\r\n    (fpn_lateral2): Conv2d(256, 256, kernel_size=(1, 1), stride=(1, 1))\r\n    (fpn_output2): Conv2d(256, 256, kernel_size=(3, 3), stride=(1, 1), padding=(1, 1))\r\n    (fpn_lateral3): Conv2d(512, 256, kernel_size=(1, 1), stride=(1, 1))\r\n    (fpn_output3): Conv2d(256, 256, kernel_size=(3, 3), stride=(1, 1), padding=(1, 1))\r\n    (fpn_lateral4): Conv2d(1024, 256, kernel_size=(1, 1), stride=(1, 1))\r\n    (fpn_output4): Conv2d(256, 256, kernel_size=(3, 3), stride=(1, 1), padding=(1, 1))\r\n    (fpn_lateral5): Conv2d(2048, 256, kernel_size=(1, 1), stride=(1, 1))\r\n    (fpn_output5): Conv2d(256, 256, kernel_size=(3, 3), stride=(1, 1), padding=(1, 1))\r\n    (top_block): LastLevelMaxPool()\r\n    (bottom_up): ResNet(\r\n      (stem): BasicStem(\r\n        (conv1): Conv2d(\r\n          3, 64, kernel_size=(7, 7), stride=(2, 2), padding=(3, 3), bias=False\r\n          (norm): FrozenBatchNorm2d(num_features=64, eps=1e-05)\r\n        )\r\n      )\r\n      (res2): Sequential(\r\n        (0): BottleneckBlock(\r\n          (shortcut): Conv2d(\r\n            64, 256, kernel_size=(1, 1), stride=(1, 1), bias=False\r\n            (norm): FrozenBatchNorm2d(num_features=256, eps=1e-05)\r\n          )\r\n          (conv1): Conv2d(\r\n            64, 64, kernel_size=(1, 1), stride=(1, 1), bias=False\r\n            (norm): FrozenBatchNorm2d(num_features=64, eps=1e-05)\r\n          )\r\n          (conv2): Conv2d(\r\n            64, 64, kernel_size=(3, 3), stride=(1, 1), padding=(1, 1), bias=False\r\n            (norm): FrozenBatchNorm2d(num_features=64, eps=1e-05)\r\n          )\r\n          (conv3): Conv2d(\r\n            64, 256, kernel_size=(1, 1), stride=(1, 1), bias=False\r\n            (norm): FrozenBatchNorm2d(num_features=256, eps=1e-05)\r\n          )\r\n        )\r\n        (1): BottleneckBlock(\r\n          (conv1): Conv2d(\r\n            256, 64, kernel_size=(1, 1), stride=(1, 1), bias=False\r\n            (norm): FrozenBatchNorm2d(num_features=64, eps=1e-05)\r\n          )\r\n          (conv2): Conv2d(\r\n            64, 64, kernel_size=(3, 3), stride=(1, 1), padding=(1, 1), bias=False\r\n            (norm): FrozenBatchNorm2d(num_features=64, eps=1e-05)\r\n          )\r\n          (conv3): Conv2d(\r\n            64, 256, kernel_size=(1, 1), stride=(1, 1), bias=False\r\n            (norm): FrozenBatchNorm2d(num_features=256, eps=1e-05)\r\n          )\r\n        )\r\n        (2): BottleneckBlock(\r\n          (conv1): Conv2d(\r\n            256, 64, kernel_size=(1, 1), stride=(1, 1), bias=False\r\n            (norm): FrozenBatchNorm2d(num_features=64, eps=1e-05)\r\n          )\r\n          (conv2): Conv2d(\r\n            64, 64, kernel_size=(3, 3), stride=(1, 1), padding=(1, 1), bias=False\r\n            (norm): FrozenBatchNorm2d(num_features=64, eps=1e-05)\r\n          )\r\n          (conv3): Conv2d(\r\n            64, 256, kernel_size=(1, 1), stride=(1, 1), bias=False\r\n            (norm): FrozenBatchNorm2d(num_features=256, eps=1e-05)\r\n          )\r\n        )\r\n      )\r\n      (res3): Sequential(\r\n        (0): BottleneckBlock(\r\n          (shortcut): Conv2d(\r\n            256, 512, kernel_size=(1, 1), stride=(2, 2), bias=False\r\n            (norm): FrozenBatchNorm2d(num_features=512, eps=1e-05)\r\n          )\r\n          (conv1): Conv2d(\r\n            256, 128, kernel_size=(1, 1), stride=(2, 2), bias=False\r\n            (norm): FrozenBatchNorm2d(num_features=128, eps=1e-05)\r\n          )\r\n          (conv2): Conv2d(\r\n            128, 128, kernel_size=(3, 3), stride=(1, 1), padding=(1, 1), bias=False\r\n            (norm): FrozenBatchNorm2d(num_features=128, eps=1e-05)\r\n          )\r\n          (conv3): Conv2d(\r\n            128, 512, kernel_size=(1, 1), stride=(1, 1), bias=False\r\n            (norm): FrozenBatchNorm2d(num_features=512, eps=1e-05)\r\n          )\r\n        )\r\n        (1): BottleneckBlock(\r\n          (conv1): Conv2d(\r\n            512, 128, kernel_size=(1, 1), stride=(1, 1), bias=False\r\n            (norm): FrozenBatchNorm2d(num_features=128, eps=1e-05)\r\n          )\r\n          (conv2): Conv2d(\r\n            128, 128, kernel_size=(3, 3), stride=(1, 1), padding=(1, 1), bias=False\r\n            (norm): FrozenBatchNorm2d(num_features=128, eps=1e-05)\r\n          )\r\n          (conv3): Conv2d(\r\n            128, 512, kernel_size=(1, 1), stride=(1, 1), bias=False\r\n            (norm): FrozenBatchNorm2d(num_features=512, eps=1e-05)\r\n          )\r\n        )\r\n        (2): BottleneckBlock(\r\n          (conv1): Conv2d(\r\n            512, 128, kernel_size=(1, 1), stride=(1, 1), bias=False\r\n            (norm): FrozenBatchNorm2d(num_features=128, eps=1e-05)\r\n          )\r\n          (conv2): Conv2d(\r\n            128, 128, kernel_size=(3, 3), stride=(1, 1), padding=(1, 1), bias=False\r\n            (norm): FrozenBatchNorm2d(num_features=128, eps=1e-05)\r\n          )\r\n          (conv3): Conv2d(\r\n            128, 512, kernel_size=(1, 1), stride=(1, 1), bias=False\r\n            (norm): FrozenBatchNorm2d(num_features=512, eps=1e-05)\r\n          )\r\n        )\r\n        (3): BottleneckBlock(\r\n          (conv1): Conv2d(\r\n            512, 128, kernel_size=(1, 1), stride=(1, 1), bias=False\r\n            (norm): FrozenBatchNorm2d(num_features=128, eps=1e-05)\r\n          )\r\n          (conv2): Conv2d(\r\n            128, 128, kernel_size=(3, 3), stride=(1, 1), padding=(1, 1), bias=False\r\n            (norm): FrozenBatchNorm2d(num_features=128, eps=1e-05)\r\n          )\r\n          (conv3): Conv2d(\r\n            128, 512, kernel_size=(1, 1), stride=(1, 1), bias=False\r\n            (norm): FrozenBatchNorm2d(num_features=512, eps=1e-05)\r\n          )\r\n        )\r\n      )\r\n      (res4): Sequential(\r\n        (0): BottleneckBlock(\r\n          (shortcut): Conv2d(\r\n            512, 1024, kernel_size=(1, 1), stride=(2, 2), bias=False\r\n            (norm): FrozenBatchNorm2d(num_features=1024, eps=1e-05)\r\n          )\r\n          (conv1): Conv2d(\r\n            512, 256, kernel_size=(1, 1), stride=(2, 2), bias=False\r\n            (norm): FrozenBatchNorm2d(num_features=256, eps=1e-05)\r\n          )\r\n          (conv2): Conv2d(\r\n            256, 256, kernel_size=(3, 3), stride=(1, 1), padding=(1, 1), bias=False\r\n            (norm): FrozenBatchNorm2d(num_features=256, eps=1e-05)\r\n          )\r\n          (conv3): Conv2d(\r\n            256, 1024, kernel_size=(1, 1), stride=(1, 1), bias=False\r\n            (norm): FrozenBatchNorm2d(num_features=1024, eps=1e-05)\r\n          )\r\n        )\r\n        (1): BottleneckBlock(\r\n          (conv1): Conv2d(\r\n            1024, 256, kernel_size=(1, 1), stride=(1, 1), bias=False\r\n            (norm): FrozenBatchNorm2d(num_features=256, eps=1e-05)\r\n          )\r\n          (conv2): Conv2d(\r\n            256, 256, kernel_size=(3, 3), stride=(1, 1), padding=(1, 1), bias=False\r\n            (norm): FrozenBatchNorm2d(num_features=256, eps=1e-05)\r\n          )\r\n          (conv3): Conv2d(\r\n            256, 1024, kernel_size=(1, 1), stride=(1, 1), bias=False\r\n            (norm): FrozenBatchNorm2d(num_features=1024, eps=1e-05)\r\n          )\r\n        )\r\n        (2): BottleneckBlock(\r\n          (conv1): Conv2d(\r\n            1024, 256, kernel_size=(1, 1), stride=(1, 1), bias=False\r\n            (norm): FrozenBatchNorm2d(num_features=256, eps=1e-05)\r\n          )\r\n          (conv2): Conv2d(\r\n            256, 256, kernel_size=(3, 3), stride=(1, 1), padding=(1, 1), bias=False\r\n            (norm): FrozenBatchNorm2d(num_features=256, eps=1e-05)\r\n          )\r\n          (conv3): Conv2d(\r\n            256, 1024, kernel_size=(1, 1), stride=(1, 1), bias=False\r\n            (norm): FrozenBatchNorm2d(num_features=1024, eps=1e-05)\r\n          )\r\n        )\r\n        (3): BottleneckBlock(\r\n          (conv1): Conv2d(\r\n            1024, 256, kernel_size=(1, 1), stride=(1, 1), bias=False\r\n            (norm): FrozenBatchNorm2d(num_features=256, eps=1e-05)\r\n          )\r\n          (conv2): Conv2d(\r\n            256, 256, kernel_size=(3, 3), stride=(1, 1), padding=(1, 1), bias=False\r\n            (norm): FrozenBatchNorm2d(num_features=256, eps=1e-05)\r\n          )\r\n          (conv3): Conv2d(\r\n            256, 1024, kernel_size=(1, 1), stride=(1, 1), bias=False\r\n            (norm): FrozenBatchNorm2d(num_features=1024, eps=1e-05)\r\n          )\r\n        )\r\n        (4): BottleneckBlock(\r\n          (conv1): Conv2d(\r\n            1024, 256, kernel_size=(1, 1), stride=(1, 1), bias=False\r\n            (norm): FrozenBatchNorm2d(num_features=256, eps=1e-05)\r\n          )\r\n          (conv2): Conv2d(\r\n            256, 256, kernel_size=(3, 3), stride=(1, 1), padding=(1, 1), bias=False\r\n            (norm): FrozenBatchNorm2d(num_features=256, eps=1e-05)\r\n          )\r\n          (conv3): Conv2d(\r\n            256, 1024, kernel_size=(1, 1), stride=(1, 1), bias=False\r\n            (norm): FrozenBatchNorm2d(num_features=1024, eps=1e-05)\r\n          )\r\n        )\r\n        (5): BottleneckBlock(\r\n          (conv1): Conv2d(\r\n            1024, 256, kernel_size=(1, 1), stride=(1, 1), bias=False\r\n            (norm): FrozenBatchNorm2d(num_features=256, eps=1e-05)\r\n          )\r\n          (conv2): Conv2d(\r\n            256, 256, kernel_size=(3, 3), stride=(1, 1), padding=(1, 1), bias=False\r\n            (norm): FrozenBatchNorm2d(num_features=256, eps=1e-05)\r\n          )\r\n          (conv3): Conv2d(\r\n            256, 1024, kernel_size=(1, 1), stride=(1, 1), bias=False\r\n            (norm): FrozenBatchNorm2d(num_features=1024, eps=1e-05)\r\n          )\r\n        )\r\n      )\r\n      (res5): Sequential(\r\n        (0): BottleneckBlock(\r\n          (shortcut): Conv2d(\r\n            1024, 2048, kernel_size=(1, 1), stride=(2, 2), bias=False\r\n            (norm): FrozenBatchNorm2d(num_features=2048, eps=1e-05)\r\n          )\r\n          (conv1): Conv2d(\r\n            1024, 512, kernel_size=(1, 1), stride=(2, 2), bias=False\r\n            (norm): FrozenBatchNorm2d(num_features=512, eps=1e-05)\r\n          )\r\n          (conv2): Conv2d(\r\n            512, 512, kernel_size=(3, 3), stride=(1, 1), padding=(1, 1), bias=False\r\n            (norm): FrozenBatchNorm2d(num_features=512, eps=1e-05)\r\n          )\r\n          (conv3): Conv2d(\r\n            512, 2048, kernel_size=(1, 1), stride=(1, 1), bias=False\r\n            (norm): FrozenBatchNorm2d(num_features=2048, eps=1e-05)\r\n          )\r\n        )\r\n        (1): BottleneckBlock(\r\n          (conv1): Conv2d(\r\n            2048, 512, kernel_size=(1, 1), stride=(1, 1), bias=False\r\n            (norm): FrozenBatchNorm2d(num_features=512, eps=1e-05)\r\n          )\r\n          (conv2): Conv2d(\r\n            512, 512, kernel_size=(3, 3), stride=(1, 1), padding=(1, 1), bias=False\r\n            (norm): FrozenBatchNorm2d(num_features=512, eps=1e-05)\r\n          )\r\n          (conv3): Conv2d(\r\n            512, 2048, kernel_size=(1, 1), stride=(1, 1), bias=False\r\n            (norm): FrozenBatchNorm2d(num_features=2048, eps=1e-05)\r\n          )\r\n        )\r\n        (2): BottleneckBlock(\r\n          (conv1): Conv2d(\r\n            2048, 512, kernel_size=(1, 1), stride=(1, 1), bias=False\r\n            (norm): FrozenBatchNorm2d(num_features=512, eps=1e-05)\r\n          )\r\n          (conv2): Conv2d(\r\n            512, 512, kernel_size=(3, 3), stride=(1, 1), padding=(1, 1), bias=False\r\n            (norm): FrozenBatchNorm2d(num_features=512, eps=1e-05)\r\n          )\r\n          (conv3): Conv2d(\r\n            512, 2048, kernel_size=(1, 1), stride=(1, 1), bias=False\r\n            (norm): FrozenBatchNorm2d(num_features=2048, eps=1e-05)\r\n          )\r\n        )\r\n      )\r\n    )\r\n  )\r\n  (proposal_generator): RPN(\r\n    (rpn_head): StandardRPNHead(\r\n      (conv): Conv2d(\r\n        256, 256, kernel_size=(3, 3), stride=(1, 1), padding=(1, 1)\r\n        (activation): ReLU()\r\n      )\r\n      (objectness_logits): Conv2d(256, 3, kernel_size=(1, 1), stride=(1, 1))\r\n      (anchor_deltas): Conv2d(256, 12, kernel_size=(1, 1), stride=(1, 1))\r\n    )\r\n    (anchor_generator): DefaultAnchorGenerator(\r\n      (cell_anchors): BufferList()\r\n    )\r\n  )\r\n  (roi_heads): StandardROIHeads(\r\n    (box_pooler): ROIPooler(\r\n      (level_poolers): ModuleList(\r\n        (0): ROIAlign(output_size=(7, 7), spatial_scale=0.25, sampling_ratio=0, aligned=True)\r\n        (1): ROIAlign(output_size=(7, 7), spatial_scale=0.125, sampling_ratio=0, aligned=True)\r\n        (2): ROIAlign(output_size=(7, 7), spatial_scale=0.0625, sampling_ratio=0, aligned=True)\r\n        (3): ROIAlign(output_size=(7, 7), spatial_scale=0.03125, sampling_ratio=0, aligned=True)\r\n      )\r\n    )\r\n    (box_head): FastRCNNConvFCHead(\r\n      (flatten): Flatten(start_dim=1, end_dim=-1)\r\n      (fc1): Linear(in_features=12544, out_features=1024, bias=True)\r\n      (fc_relu1): ReLU()\r\n      (fc2): Linear(in_features=1024, out_features=1024, bias=True)\r\n      (fc_relu2): ReLU()\r\n    )\r\n    (box_predictor): FastRCNNOutputLayers(\r\n      (cls_score): Linear(in_features=1024, out_features=42, bias=True)\r\n      (bbox_pred): Linear(in_features=1024, out_features=164, bias=True)\r\n    )\r\n    (mask_pooler): ROIPooler(\r\n      (level_poolers): ModuleList(\r\n        (0): ROIAlign(output_size=(14, 14), spatial_scale=0.25, sampling_ratio=0, aligned=True)\r\n        (1): ROIAlign(output_size=(14, 14), spatial_scale=0.125, sampling_ratio=0, aligned=True)\r\n        (2): ROIAlign(output_size=(14, 14), spatial_scale=0.0625, sampling_ratio=0, aligned=True)\r\n        (3): ROIAlign(output_size=(14, 14), spatial_scale=0.03125, sampling_ratio=0, aligned=True)\r\n      )\r\n    )\r\n    (mask_head): MaskRCNNConvUpsampleHead(\r\n      (mask_fcn1): Conv2d(\r\n        256, 256, kernel_size=(3, 3), stride=(1, 1), padding=(1, 1)\r\n        (activation): ReLU()\r\n      )\r\n      (mask_fcn2): Conv2d(\r\n        256, 256, kernel_size=(3, 3), stride=(1, 1), padding=(1, 1)\r\n        (activation): ReLU()\r\n      )\r\n      (mask_fcn3): Conv2d(\r\n        256, 256, kernel_size=(3, 3), stride=(1, 1), padding=(1, 1)\r\n        (activation): ReLU()\r\n      )\r\n      (mask_fcn4): Conv2d(\r\n        256, 256, kernel_size=(3, 3), stride=(1, 1), padding=(1, 1)\r\n        (activation): ReLU()\r\n      )\r\n      (deconv): ConvTranspose2d(256, 256, kernel_size=(2, 2), stride=(2, 2))\r\n      (deconv_relu): ReLU()\r\n      (predictor): Conv2d(256, 41, kernel_size=(1, 1), stride=(1, 1))\r\n    )\r\n  )\r\n)\r\n[12/20 11:21:47 d2.data.datasets.coco]: Loaded 906 images in COCO format from ../../rcshv1.1/train/annotations/train.json\r\n[12/20 11:21:47 d2.data.build]: Removed 0 images with no usable annotations. 906 images left.\r\n[12/20 11:21:47 d2.data.build]: Distribution of instances among all 41 categories:\r\n|   category    | #insta
…
lt: 512)\r\ncfg.MODEL.ROI_HEADS.NUM_CLASSES = 1  # only has one class (ballon). (see https://detectron2.readthedocs.io/tutorials/datasets.html#update-the-config-for-new-datasets)\r\n# NOTE: this config means the number of classes, but a few popular unofficial tutorials incorrect uses num_classes+1 here.\r\n\r\nos.makedirs(cfg.OUTPUT_DIR, exist_ok=True)\r\ntrainer = DefaultTrainer(cfg) \r\ntrainer.resume_or_load(resume=False)\r\ntrainer.train()\r\n```\r\n\r\n\r\nI got this error:\r\n```\r\n[09/11 01:38:29 d2.engine.defaults]: Model:\r\nGeneralizedRCNN(\r\n  (backbone): FPN(\r\n    (fpn_lateral2): Conv2d(256, 256, kernel_size=(1, 1), stride=(1, 1))\r\n    (fpn_output2): Conv2d(256, 256, kernel_size=(3, 3), stride=(1, 1), padding=(1, 1))\r\n    (fpn_lateral3): Conv2d(512, 256, kernel_size=(1, 1), stride=(1, 1))\r\n    (fpn_output3): Conv2d(256, 256, kernel_size=(3, 3), stride=(1, 1), padding=(1, 1))\r\n    (fpn_lateral4): Conv2d(1024, 256, kernel_size=(1, 1), stride=(1, 1))\r\n    (fpn_output4): Conv2d(256, 256, kernel_size=(3, 3), stride=(1, 1), padding=(1, 1))\r\n    (fpn_lateral5): Conv2d(2048, 256, kernel_size=(1, 1), stride=(1, 1))\r\n    (fpn_output5): Conv2d(256, 256, kernel_size=(3, 3), stride=(1, 1), padding=(1, 1))\r\n    (top_block): LastLevelMaxPool()\r\n    (bottom_up): ResNet(\r\n      (stem): BasicStem(\r\n        (conv1): Conv2d(\r\n          3, 64, kernel_size=(7, 7), stride=(2, 2), padding=(3, 3), bias=False\r\n          (norm): FrozenBatchNorm2d(num_features=64, eps=1e-05)\r\n        )\r\n      )\r\n      (res2): Sequential(\r\n        (0): BottleneckBlock(\r\n          (shortcut): Conv2d(\r\n            64, 256, kernel_size=(1, 1), stride=(1, 1), bias=False\r\n            (norm): FrozenBatchNorm2d(num_features=256, eps=1e-05)\r\n          )\r\n          (conv1): Conv2d(\r\n            64, 64, kernel_size=(1, 1), stride=(1, 1), bias=False\r\n            (norm): FrozenBatchNorm2d(num_features=64, eps=1e-05)\r\n          )\r\n          (conv2): Conv2d(\r\n            64, 64, kernel_size=(3, 3), stride=(1, 1), padding=(1, 1), bias=False\r\n            (norm): FrozenBatchNorm2d(num_features=64, eps=1e-05)\r\n          )\r\n          (conv3): Conv2d(\r\n            64, 256, kernel_size=(1, 1), stride=(1, 1), bias=False\r\n            (norm): FrozenBatchNorm2d(num_features=256, eps=1e-05)\r\n          )\r\n        )\r\n        (1): BottleneckBlock(\r\n          (conv1): Conv2d(\r\n            256, 64, kernel_size=(1, 1), stride=(1, 1), bias=False\r\n            (norm): FrozenBatchNorm2d(num_features=64, eps=1e-05)\r\n          )\r\n          (conv2): Conv2d(\r\n            64, 64, kernel_size=(3, 3), stride=(1, 1), padding=(1, 1), bias=False\r\n            (norm): FrozenBatchNorm2d(num_features=64, eps=1e-05)\r\n          )\r\n          (conv3): Conv2d(\r\n            64, 256, kernel_size=(1, 1), stride=(1, 1), bias=False\r\n            (norm): FrozenBatchNorm2d(num_features=256, eps=1e-05)\r\n          )\r\n        )\r\n        (2): BottleneckBlock(\r\n          (conv1): Conv2d(\r\n            256, 64, kernel_size=(1, 1), stride=(1, 1), bias=False\r\n            (norm): FrozenBatchNorm2d(num_features=64, eps=1e-05)\r\n          )\r\n          (conv2): Conv2d(\r\n            64, 64, kernel_size=(3, 3), stride=(1, 1), padding=(1, 1), bias=False\r\n            (norm): FrozenBatchNorm2d(num_features=64, eps=1e-05)\r\n          )\r\n          (conv3): Conv2d(\r\n            64, 256, kernel_size=(1, 1), stride=(1, 1), bias=False\r\n            (norm): FrozenBatchNorm2d(num_features=256, eps=1e-05)\r\n          )\r\n        )\r\n      )\r\n      (res3): Sequential(\r\n        (0): BottleneckBlock(\r\n          (shortcut): Conv2d(\r\n            256, 512, kernel_size=(1, 1), stride=(2, 2), bias=False\r\n            (norm): FrozenBatchNorm2d(num_features=512, eps=1e-05)\r\n          )\r\n          (conv1): Conv2d(\r\n            256, 128, kernel_size=(1, 1), stride=(2, 2), bias=False\r\n            (norm): FrozenBatchNorm2d(num_features=128, eps=1e-05)\r\n          )\r\n          (conv2): Conv2d(\r\n            128, 128, kernel_size=(3, 3), stride=(1, 1), padding=(1, 1), bias=False\r\n            (norm): FrozenBatchNorm2d(num_features=128, eps=1e-05)\r\n          )\r\n          (conv3): Conv2d(\r\n            128, 512, kernel_size=(1, 1), stride=(1, 1), bias=False\r\n            (norm): FrozenBatchNorm2d(num_features=512, eps=1e-05)\r\n          )\r\n        )\r\n        (1): BottleneckBlock(\r\n          (conv1): Conv2d(\r\n            512, 128, kernel_size=(1, 1), stride=(1, 1), bias=False\r\n            (norm): FrozenBatchNorm2d(num_features=128, eps=1e-05)\r\n          )\r\n          (conv2): Conv2d(\r\n            128, 128, kernel_size=(3, 3), stride=(1, 1), padding=(1, 1), bias=False\r\n            (norm): FrozenBatchNorm2d(num_features=128, eps=1e-05)\r\n          )\r\n          (conv3): Conv2d(\r\n            128, 512, kernel_size=(1, 1), stride=(1, 1), bias=False\r\n            (norm): FrozenBatchNorm2d(num_features=512, eps=1e-05)\r\n          )\r\n        )\r\n        (2): BottleneckBlock(\r\n          (conv1): Conv2d(\r\n            512, 128, kernel_size=(1, 1), stride=(1, 1), bias=False\r\n            (norm): FrozenBatchNorm2d(num_features=128, eps=1e-05)\r\n          )\r\n          (conv2): Conv2d(\r\n            128, 128, kernel_size=(3, 3), stride=(1, 1), padding=(1, 1), bias=False\r\n            (norm): FrozenBatchNorm2d(num_features=128, eps=1e-05)\r\n          )\r\n          (conv3): Conv2d(\r\n            128, 512, kernel_size=(1, 1), stride=(1, 1), bias=False\r\n            (norm): FrozenBatchNorm2d(num_features=512, eps=1e-05)\r\n          )\r\n        )\r\n        (3): BottleneckBlock(\r\n          (conv1): Conv2d(\r\n            512, 128, kernel_size=(1, 1), stride=(1, 1), bias=False\r\n            (norm): FrozenBatchNorm2d(num_features=128, eps=1e-05)\r\n          )\r\n          (conv2): Conv2d(\r\n            128, 128, kernel_size=(3, 3), stride=(1, 1), padding=(1, 1), bias=False\r\n            (norm): FrozenBatchNorm2d(num_features=128, eps=1e-05)\r\n          )\r\n          (conv3): Conv2d(\r\n            128, 512, kernel_size=(1, 1), stride=(1, 1), bias=False\r\n            (norm): FrozenBatchNorm2d(num_features=512, eps=1e-05)\r\n          )\r\n        )\r\n      )\r\n      (res4): Sequential(\r\n        (0): BottleneckBlock(\r\n          (shortcut): Conv2d(\r\n            512, 1024, kernel_size=(1, 1), stride=(2, 2), bias=False\r\n            (norm): FrozenBatchNorm2d(num_features=1024, eps=1e-05)\r\n          )\r\n          (conv1): Conv2d(\r\n            512, 256, kernel_size=(1, 1), stride=(2, 2), bias=False\r\n            (norm): FrozenBatchNorm2d(num_features=256, eps=1e-05)\r\n          )\r\n          (conv2): Conv2d(\r\n            256, 256, kernel_size=(3, 3), stride=(1, 1), padding=(1, 1), bias=False\r\n            (norm): FrozenBatchNorm2d(num_features=256, eps=1e-05)\r\n          )\r\n          (conv3): Conv2d(\r\n            256, 1024, kernel_size=(1, 1), stride=(1, 1), bias=False\r\n            (norm): FrozenBatchNorm2d(num_features=1024, eps=1e-05)\r\n          )\r\n        )\r\n        (1): BottleneckBlock(\r\n          (conv1): Conv2d(\r\n            1024, 256, kernel_size=(1, 1), stride=(1, 1), bias=False\r\n            (norm): FrozenBatchNorm2d(num_features=256, eps=1e-05)\r\n          )\r\n          (conv2): Conv2d(\r\n            256, 256, kernel_size=(3, 3), stride=(1, 1), padding=(1, 1), bias=False\r\n            (norm): FrozenBatchNorm2d(num_features=256, eps=1e-05)\r\n          )\r\n          (conv3): Conv2d(\r\n            256, 1024, kernel_size=(1, 1), stride=(1, 1), bias=False\r\n            (norm): FrozenBatchNorm2d(num_features=1024, eps=1e-05)\r\n          )\r\n        )\r\n        (2): BottleneckBlock(\r\n          (conv1): Conv2d(\r\n            1024, 256, kernel_size=(1, 1), stride=(1, 1), bias=False\r\n            (norm): FrozenBatchNorm2d(num_features=256, eps=1e-05)\r\n          )\r\n          (conv2): Conv2d(\r\n            256, 256, kernel_size=(3, 3), stride=(1, 1), padding=(1, 1), bias=False\r\n            (norm): FrozenBatchNorm2d(num_features=256, eps=1e-05)\r\n          )\r\n          (conv3): Conv2d(\r\n            256, 1024, kernel_size=(1, 1), stride=(1, 1), bias=False\r\n            (norm): FrozenBatchNorm2d(num_features=1024, eps=1e-05)\r\n          )\r\n        )\r\n        (3): BottleneckBlock(\r\n          (conv1): Conv2d(\r\n            1024, 256, kernel_size=(1, 1), stride=(1, 1), bias=False\r\n            (norm): FrozenBatchNorm2d(num_features=256, eps=1e-05)\r\n          )\r\n          (conv2): Conv2d(\r\n            256, 256, kernel_size=(3, 3), stride=(1, 1), padding=(1, 1), bias=False\r\n            (norm): FrozenBatchNorm2d(num_features=256, eps=1e-05)\r\n          )\r\n          (conv3): Conv2d(\r\n            256, 1024, kernel_size=(1, 1), stride=(1, 1), bias=False\r\n            (norm): FrozenBatchNorm2d(num_features=1024, eps=1e-05)\r\n          )\r\n        )\r\n        (4): BottleneckBlock(\r\n          (conv1): Conv2d(\r\n            1024, 256, kernel_size=(1, 1), stride=(1, 1), bias=False\r\n            (norm): FrozenBatchNorm2d(num_features=256, eps=1e-05)\r\n          )\r\n          (conv2): Conv2d(\r\n            256, 256, kernel_size=(3, 3), stride=(1, 1), padding=(1, 1), bias=False\r\n            (norm): FrozenBatchNorm2d(num_features=256, eps=1e-05)\r\n          )\r\n          (conv3): Conv2d(\r\n            256, 1024, kernel_size=(1, 1), stride=(1, 1), bias=False\r\n            (norm): FrozenBatchNorm2d(num_features=1024, eps=1e-05)\r\n          )\r\n        )\r\n        (5): BottleneckBlock(\r\n          (conv1): Conv2d(\r\n            1024, 256, kernel_size=(1, 1), stride=(1, 1), bias=False\r\n            (norm): FrozenBatchNorm2d(num_features=256, eps=1e-05)\r\n          )\r\n          (conv2): Conv2d(\r\n            256, 256, kernel_size=(3, 3), stride=(1, 1), padding=(1, 1), bias=False\r\n            (norm): FrozenBatchNorm2d(num_features=256, eps=1e-05)\r\n          )\r\n          (conv3): Conv2d(\r\n            256, 1024, kernel_size=(1, 1), stride=(1, 1), bias=False\r\n            (norm): FrozenBatchNorm2d(num_features=1024, eps=1e-05)\r\n          )\r\n        )\r\n      )\r\n      (res5): Sequential(\r\n        (0): BottleneckBlock(\r\n          (shortcut): Conv2d(\r\n            1024, 2048, kernel_size=(1, 1), stride=(2, 2), bias=False\r\n            (norm): FrozenBatchNorm2d(num_features=2048, eps=1e-05)\r\n          )\r\n          (conv1): Conv2d(\r\n            1024, 512, kernel_size=(1, 1), stride=(2, 2), bias=False\r\n            (norm): FrozenBatchNorm2d(num_features=512, eps=1e-05)\r\n          )\r\n          (conv2): Conv2d(\r\n            512, 512, kernel_size=(3, 3), stride=(1, 1), padding=(1, 1), bias=False\r\n            (norm): FrozenBatchNorm2d(num_features=512, eps=1e-05)\r\n          )\r\n          (conv3): Conv2d(\r\n            512, 2048, kernel_size=(1, 1), stride=(1, 1), bias=False\r\n            (norm): FrozenBatchNorm2d(num_features=2048, eps=1e-05)\r\n          )\r\n        )\r\n        (1): BottleneckBlock(\r\n          (conv1): Conv2d(\r\n            2048, 512, kernel_size=(1, 1), stride=(1, 1), bias=False\r\n            (norm): FrozenBatchNorm2d(num_features=512, eps=1e-05)\r\n          )\r\n          (conv2): Conv2d(\r\n            512, 512, kernel_size=(3, 3), stride=(1, 1), padding=(1, 1), bias=False\r\n            (norm): FrozenBatchNorm2d(num_features=512, eps=1e-05)\r\n          )\r\n          (conv3): Conv2d(\r\n            512, 2048, kernel_size=(1, 1), stride=(1, 1), bias=False\r\n            (norm): FrozenBatchNorm2d(num_features=2048, eps=1e-05)\r\n          )\r\n        )\r\n        (2): BottleneckBlock(\r\n          (conv1): Conv2d(\r\n            2048, 512, kernel_size=(1, 1), stride=(1, 1), bias=False\r\n            (norm): FrozenBatchNorm2d(num_features=512, eps=1e-05)\r\n          )\r\n          (conv2): Conv2d(\r\n            512, 512, kernel_size=(3, 3), stride=(1, 1), padding=(1, 1), bias=False\r\n            (norm): FrozenBatchNorm2d(num_features=512, eps=1e-05)\r\n          )\r\n          (conv3): Conv2d(\r\n            512, 2048, kernel_size=(1, 1), stride=(1, 1), bias=False\r\n            (norm): FrozenBatchNorm2d(num_features=2048, eps=1e-05)\r\n          )\r\n        )\r\n      )\r\n    )\r\n  )\r\n  (proposal_generator): RPN(\r\n    (rpn_head): StandardRPNHead(\r\n      (conv): Conv2d(\r\n        256, 256, kernel_size=(3, 3), stride=(1, 1), padding=(1, 1)\r\n        (activation): ReLU()\r\n      )\r\n      (objectness_logits): Conv2d(256, 3, kernel_size=(1, 1), stride=(1, 1))\r\n      (anchor_deltas): Conv2d(256, 12, kernel_size=(1, 1), stride=(1, 1))\r\n    )\r\n    (anchor_generator): DefaultAnchorGenerator(\r\n      (cell_anchors): BufferList()\r\n    )\r\n  )\r\n  (roi_heads): StandardROIHeads(\r\n    (box_pooler): ROIPooler(\r\n      (level_poolers): ModuleList(\r\n        (0): ROIAlign(output_size=(7, 7), spatial_scale=0.25, sampling_ratio=0, aligned=True)\r\n        (1): ROIAlign(output_size=(7, 7), spatial_scale=0.125, sampling_ratio=0, aligned=True)\r\n        (2): ROIAlign(output_size=(7, 7), spatial_scale=0.0625, sampling_ratio=0, aligned=True)\r\n        (3): ROIAlign(output_size=(7, 7), spatial_scale=0.03125, sampling_ratio=0, aligned=True)\r\n      )\r\n    )\r\n    (box_head): FastRCNNConvFCHead(\r\n      (flatten): Flatten(start_dim=1, end_dim=-1)\r\n      (fc1): Linear(in_features=12544, out_features=1024, bias=True)\r\n      (fc_relu1): ReLU()\r\n      (fc2): Linear(in_features=1024, out_features=1024, bias=True)\r\n      (fc_relu2): ReLU()\r\n    )\r\n    (box_predictor): FastRCNNOutputLayers(\r\n      (cls_score): Linear(in_features=1024, out_features=2, bias=True)\r\n      (bbox_pred): Linear(in_features=1024, out_features=4, bias=True)\r\n    )\r\n    (mask_pooler): ROIPooler(\r\n      (level_poolers): ModuleList(\r\n        (0): ROIAlign(output_size=(14, 14), spatial_scale=0.25, sampling_ratio=0, aligned=True)\r\n        (1): ROIAlign(output_size=(14, 14), spatial_scale=0.125, sampling_ratio=0, aligned=True)\r\n        (2): ROIAlign(output_size=(14, 14), spatial_scale=0.0625, sampling_ratio=0, aligned=True)\r\n        (3): ROIAlign(output_size=(14, 14), spatial_scale=0.03125, sampling_ratio=0, aligned=True)\r\n      )\r\n    )\r\n    (mask_head): MaskRCNNConvUpsampleHead(\r\n      (mask_fcn1): Conv2d(\r\n        256, 256, kernel_size=(3, 3), stride=(1, 1), padding=(1, 1)\r\n        (activation): ReLU()\r\n      )\r\n      (mask_fcn2): Conv2d(\r\n        256, 256, kernel_size=(3, 3), stride=(1, 1), padding=(1, 1)\r\n        (activation): ReLU()\r\n      )\r\n      (mask_fcn3): Conv2d(\r\n        256, 256, kernel_size=(3, 3), stride=(1, 1), padding=(1, 1)\r\n        (activation): ReLU()\r\n      )\r\n      (mask_fcn4): Conv2d(\r\n        256, 256, kernel_size=(3, 3), stride=(1, 1), padding=(1, 1)\r\n        (activation): ReLU()\r\n      )\r\n      (deconv): ConvTranspose2d(256, 256, kernel_size=(2, 2), stride=(2, 2))\r\n      (deconv_relu): ReLU()\r\n      (predictor): Conv2d(256, 1, kernel_size=(1, 1), stride=(1, 1))\r\n    )\r\n  )\r\n)\r\n[09/11 01:38:30 d2.data.build]: Removed 0 images with no usable annotations. 61 images left.\r\n[09/11 01:38:30 d2.data.build]: Distribution of instances among all 1 categories:\r\n|  category  | #instances   |\r\n|:----------:|:-------------|\r\n|  balloon   | 255          |\r\n|            |              |\r\n[09/11 01:38:30 d2.d
…
`\r\n\r\n2. What exact command you run:\r\n```\r\npython bollon_test.py\r\n```\r\n\r\n3. __Full logs__ or other relevant observations:\r\n```\r\n(detectron2) root@f3c85edb8996:~/detectron2# python bollon_test.py \r\nnvcc: NVIDIA (R) Cuda compiler driver\r\nCopyright (c) 2005-2021 NVIDIA Corporation\r\nBuilt on Mon_Sep_13_19:13:29_PDT_2021\r\nCuda compilation tools, release 11.5, V11.5.50\r\nBuild cuda_11.5.r11.5/compiler.30411180_0\r\n\r\ntorch:  1.10 ; cuda:  1.10.0\r\ndetectron2: 0.6\r\n[10/29 22:29:48 d2.engine.defaults]: Model:\r\nGeneralizedRCNN(\r\n  (backbone): FPN(\r\n    (fpn_lateral2): Conv2d(256, 256, kernel_size=(1, 1), stride=(1, 1))\r\n    (fpn_output2): Conv2d(256, 256, kernel_size=(3, 3), stride=(1, 1), padding=(1, 1))\r\n    (fpn_lateral3): Conv2d(512, 256, kernel_size=(1, 1), stride=(1, 1))\r\n    (fpn_output3): Conv2d(256, 256, kernel_size=(3, 3), stride=(1, 1), padding=(1, 1))\r\n    (fpn_lateral4): Conv2d(1024, 256, kernel_size=(1, 1), stride=(1, 1))\r\n    (fpn_output4): Conv2d(256, 256, kernel_size=(3, 3), stride=(1, 1), padding=(1, 1))\r\n    (fpn_lateral5): Conv2d(2048, 256, kernel_size=(1, 1), stride=(1, 1))\r\n    (fpn_output5): Conv2d(256, 256, kernel_size=(3, 3), stride=(1, 1), padding=(1, 1))\r\n    (top_block): LastLevelMaxPool()\r\n    (bottom_up): ResNet(\r\n      (stem): BasicStem(\r\n        (conv1): Conv2d(\r\n          3, 64, kernel_size=(7, 7), stride=(2, 2), padding=(3, 3), bias=False\r\n          (norm): FrozenBatchNorm2d(num_features=64, eps=1e-05)\r\n        )\r\n      )\r\n      (res2): Sequential(\r\n        (0): BottleneckBlock(\r\n          (shortcut): Conv2d(\r\n            64, 256, kernel_size=(1, 1), stride=(1, 1), bias=False\r\n            (norm): FrozenBatchNorm2d(num_features=256, eps=1e-05)\r\n          )\r\n          (conv1): Conv2d(\r\n            64, 64, kernel_size=(1, 1), stride=(1, 1), bias=False\r\n            (norm): FrozenBatchNorm2d(num_features=64, eps=1e-05)\r\n          )\r\n          (conv2): Conv2d(\r\n            64, 64, kernel_size=(3, 3), stride=(1, 1), padding=(1, 1), bias=False\r\n            (norm): FrozenBatchNorm2d(num_features=64, eps=1e-05)\r\n          )\r\n          (conv3): Conv2d(\r\n            64, 256, kernel_size=(1, 1), stride=(1, 1), bias=False\r\n            (norm): FrozenBatchNorm2d(num_features=256, eps=1e-05)\r\n          )\r\n        )\r\n        (1): BottleneckBlock(\r\n          (conv1): Conv2d(\r\n            256, 64, kernel_size=(1, 1), stride=(1, 1), bias=False\r\n            (norm): FrozenBatchNorm2d(num_features=64, eps=1e-05)\r\n          )\r\n          (conv2): Conv2d(\r\n            64, 64, kernel_size=(3, 3), stride=(1, 1), padding=(1, 1), bias=False\r\n            (norm): FrozenBatchNorm2d(num_features=64, eps=1e-05)\r\n          )\r\n          (conv3): Conv2d(\r\n            64, 256, kernel_size=(1, 1), stride=(1, 1), bias=False\r\n            (norm): FrozenBatchNorm2d(num_features=256, eps=1e-05)\r\n          )\r\n        )\r\n        (2): BottleneckBlock(\r\n          (conv1): Conv2d(\r\n            256, 64, kernel_size=(1, 1), stride=(1, 1), bias=False\r\n            (norm): FrozenBatchNorm2d(num_features=64, eps=1e-05)\r\n          )\r\n          (conv2): Conv2d(\r\n            64, 64, kernel_size=(3, 3), stride=(1, 1), padding=(1, 1), bias=False\r\n            (norm): FrozenBatchNorm2d(num_features=64, eps=1e-05)\r\n          )\r\n          (conv3): Conv2d(\r\n            64, 256, kernel_size=(1, 1), stride=(1, 1), bias=False\r\n            (norm): FrozenBatchNorm2d(num_features=256, eps=1e-05)\r\n          )\r\n        )\r\n      )\r\n      (res3): Sequential(\r\n        (0): BottleneckBlock(\r\n          (shortcut): Conv2d(\r\n            256, 512, kernel_size=(1, 1), stride=(2, 2), bias=False\r\n            (norm): FrozenBatchNorm2d(num_features=512, eps=1e-05)\r\n          )\r\n          (conv1): Conv2d(\r\n            256, 128, kernel_size=(1, 1), stride=(2, 2), bias=False\r\n            (norm): FrozenBatchNorm2d(num_features=128, eps=1e-05)\r\n          )\r\n          (conv2): Conv2d(\r\n            128, 128, kernel_size=(3, 3), stride=(1, 1), padding=(1, 1), bias=False\r\n            (norm): FrozenBatchNorm2d(num_features=128, eps=1e-05)\r\n          )\r\n          (conv3): Conv2d(\r\n            128, 512, kernel_size=(1, 1), stride=(1, 1), bias=False\r\n            (norm): FrozenBatchNorm2d(num_features=512, eps=1e-05)\r\n          )\r\n        )\r\n        (1): BottleneckBlock(\r\n          (conv1): Conv2d(\r\n            512, 128, kernel_size=(1, 1), stride=(1, 1), bias=False\r\n            (norm): FrozenBatchNorm2d(num_features=128, eps=1e-05)\r\n          )\r\n          (conv2): Conv2d(\r\n            128, 128, kernel_size=(3, 3), stride=(1, 1), padding=(1, 1), bias=False\r\n            (norm): FrozenBatchNorm2d(num_features=128, eps=1e-05)\r\n          )\r\n          (conv3): Conv2d(\r\n            128, 512, kernel_size=(1, 1), stride=(1, 1), bias=False\r\n            (norm): FrozenBatchNorm2d(num_features=512, eps=1e-05)\r\n          )\r\n        )\r\n        (2): BottleneckBlock(\r\n          (conv1): Conv2d(\r\n            512, 128, kernel_size=(1, 1), stride=(1, 1), bias=False\r\n            (norm): FrozenBatchNorm2d(num_features=128, eps=1e-05)\r\n          )\r\n          (conv2): Conv2d(\r\n            128, 128, kernel_size=(3, 3), stride=(1, 1), padding=(1, 1), bias=False\r\n            (norm): FrozenBatchNorm2d(num_features=128, eps=1e-05)\r\n          )\r\n          (conv3): Conv2d(\r\n            128, 512, kernel_size=(1, 1), stride=(1, 1), bias=False\r\n            (norm): FrozenBatchNorm2d(num_features=512, eps=1e-05)\r\n          )\r\n        )\r\n        (3): BottleneckBlock(\r\n          (conv1): Conv2d(\r\n            512, 128, kernel_size=(1, 1), stride=(1, 1), bias=False\r\n            (norm): FrozenBatchNorm2d(num_features=128, eps=1e-05)\r\n          )\r\n          (conv2): Conv2d(\r\n            128, 128, kernel_size=(3, 3), stride=(1, 1), padding=(1, 1), bias=False\r\n            (norm): FrozenBatchNorm2d(num_features=128, eps=1e-05)\r\n          )\r\n          (conv3): Conv2d(\r\n            128, 512, kernel_size=(1, 1), stride=(1, 1), bias=False\r\n            (norm): FrozenBatchNorm2d(num_features=512, eps=1e-05)\r\n          )\r\n        )\r\n      )\r\n      (res4): Sequential(\r\n        (0): BottleneckBlock(\r\n          (shortcut): Conv2d(\r\n            512, 1024, kernel_size=(1, 1), stride=(2, 2), bias=False\r\n            (norm): FrozenBatchNorm2d(num_features=1024, eps=1e-05)\r\n          )\r\n          (conv1): Conv2d(\r\n            512, 256, kernel_size=(1, 1), stride=(2, 2), bias=False\r\n            (norm): FrozenBatchNorm2d(num_features=256, eps=1e-05)\r\n          )\r\n          (conv2): Conv2d(\r\n            256, 256, kernel_size=(3, 3), stride=(1, 1), padding=(1, 1), bias=False\r\n            (norm): FrozenBatchNorm2d(num_features=256, eps=1e-05)\r\n          )\r\n          (conv3): Conv2d(\r\n            256, 1024, kernel_size=(1, 1), stride=(1, 1), bias=False\r\n            (norm): FrozenBatchNorm2d(num_features=1024, eps=1e-05)\r\n          )\r\n        )\r\n        (1): BottleneckBlock(\r\n          (conv1): Conv2d(\r\n            1024, 256, kernel_size=(1, 1), stride=(1, 1), bias=False\r\n            (norm): FrozenBatchNorm2d(num_features=256, eps=1e-05)\r\n          )\r\n          (conv2): Conv2d(\r\n            256, 256, kernel_size=(3, 3), stride=(1, 1), padding=(1, 1), bias=False\r\n            (norm): FrozenBatchNorm2d(num_features=256, eps=1e-05)\r\n          )\r\n          (conv3): Conv2d(\r\n            256, 1024, kernel_size=(1, 1), stride=(1, 1), bias=False\r\n            (norm): FrozenBatchNorm2d(num_features=1024, eps=1e-05)\r\n          )\r\n        )\r\n        (2): BottleneckBlock(\r\n          (conv1): Conv2d(\r\n            1024, 256, kernel_size=(1, 1), stride=(1, 1), bias=False\r\n            (norm): FrozenBatchNorm2d(num_features=256, eps=1e-05)\r\n          )\r\n          (conv2): Conv2d(\r\n            256, 256, kernel_size=(3, 3), stride=(1, 1), padding=(1, 1), bias=False\r\n            (norm): FrozenBatchNorm2d(num_features=256, eps=1e-05)\r\n          )\r\n          (conv3): Conv2d(\r\n            256, 1024, kernel_size=(1, 1), stride=(1, 1), bias=False\r\n            (norm): FrozenBatchNorm2d(num_features=1024, eps=1e-05)\r\n          )\r\n        )\r\n        (3): BottleneckBlock(\r\n          (conv1): Conv2d(\r\n            1024, 256, kernel_size=(1, 1), stride=(1, 1), bias=False\r\n            (norm): FrozenBatchNorm2d(num_features=256, eps=1e-05)\r\n          )\r\n          (conv2): Conv2d(\r\n            256, 256, kernel_size=(3, 3), stride=(1, 1), padding=(1, 1), bias=False\r\n            (norm): FrozenBatchNorm2d(num_features=256, eps=1e-05)\r\n          )\r\n          (conv3): Conv2d(\r\n            256, 1024, kernel_size=(1, 1), stride=(1, 1), bias=False\r\n            (norm): FrozenBatchNorm2d(num_features=1024, eps=1e-05)\r\n          )\r\n        )\r\n        (4): BottleneckBlock(\r\n          (conv1): Conv2d(\r\n            1024, 256, kernel_size=(1, 1), stride=(1, 1), bias=False\r\n            (norm): FrozenBatchNorm2d(num_features=256, eps=1e-05)\r\n          )\r\n          (conv2): Conv2d(\r\n            256, 256, kernel_size=(3, 3), stride=(1, 1), padding=(1, 1), bias=False\r\n            (norm): FrozenBatchNorm2d(num_features=256, eps=1e-05)\r\n          )\r\n          (conv3): Conv2d(\r\n            256, 1024, kernel_size=(1, 1), stride=(1, 1), bias=False\r\n            (norm): FrozenBatchNorm2d(num_features=1024, eps=1e-05)\r\n          )\r\n        )\r\n        (5): BottleneckBlock(\r\n          (conv1): Conv2d(\r\n            1024, 256, kernel_size=(1, 1), stride=(1, 1), bias=False\r\n            (norm): FrozenBatchNorm2d(num_features=256, eps=1e-05)\r\n          )\r\n          (conv2): Conv2d(\r\n            256, 256, kernel_size=(3, 3), stride=(1, 1), padding=(1, 1), bias=False\r\n            (norm): FrozenBatchNorm2d(num_features=256, eps=1e-05)\r\n          )\r\n          (conv3): Conv2d(\r\n            256, 1024, kernel_size=(1, 1), stride=(1, 1), bias=False\r\n            (norm): FrozenBatchNorm2d(num_features=1024, eps=1e-05)\r\n          )\r\n        )\r\n      )\r\n      (res5): Sequential(\r\n        (0): BottleneckBlock(\r\n          (shortcut): Conv2d(\r\n            1024, 2048, kernel_size=(1, 1), stride=(2, 2), bias=False\r\n            (norm): FrozenBatchNorm2d(num_features=2048, eps=1e-05)\r\n          )\r\n          (conv1): Conv2d(\r\n            1024, 512, kernel_size=(1, 1), stride=(2, 2), bias=False\r\n            (norm): FrozenBatchNorm2d(num_features=512, eps=1e-05)\r\n          )\r\n          (conv2): Conv2d(\r\n            512, 512, kernel_size=(3, 3), stride=(1, 1), padding=(1, 1), bias=False\r\n            (norm): FrozenBatchNorm2d(num_features=512, eps=1e-05)\r\n          )\r\n          (conv3): Conv2d(\r\n            512, 2048, kernel_size=(1, 1), stride=(1, 1), bias=False\r\n            (norm): FrozenBatchNorm2d(num_features=2048, eps=1e-05)\r\n          )\r\n        )\r\n        (1): BottleneckBlock(\r\n          (conv1): Conv2d(\r\n            2048, 512, kernel_size=(1, 1), stride=(1, 1), bias=False\r\n            (norm): FrozenBatchNorm2d(num_features=512, eps=1e-05)\r\n          )\r\n          (conv2): Conv2d(\r\n            512, 512, kernel_size=(3, 3), stride=(1, 1), padding=(1, 1), bias=False\r\n            (norm): FrozenBatchNorm2d(num_features=512, eps=1e-05)\r\n          )\r\n          (conv3): Conv2d(\r\n            512, 2048, kernel_size=(1, 1), stride=(1, 1), bias=False\r\n            (norm): FrozenBatchNorm2d(num_features=2048, eps=1e-05)\r\n          )\r\n        )\r\n        (2): BottleneckBlock(\r\n          (conv1): Conv2d(\r\n            2048, 512, kernel_size=(1, 1), stride=(1, 1), bias=False\r\n            (norm): FrozenBatchNorm2d(num_features=512, eps=1e-05)\r\n          )\r\n          (conv2): Conv2d(\r\n            512, 512, kernel_size=(3, 3), stride=(1, 1), padding=(1, 1), bias=False\r\n            (norm): FrozenBatchNorm2d(num_features=512, eps=1e-05)\r\n          )\r\n          (conv3): Conv2d(\r\n            512, 2048, kernel_size=(1, 1), stride=(1, 1), bias=False\r\n            (norm): FrozenBatchNorm2d(num_features=2048, eps=1e-05)\r\n          )\r\n        )\r\n      )\r\n    )\r\n  )\r\n  (proposal_generator): RPN(\r\n    (rpn_head): StandardRPNHead(\r\n      (conv): Conv2d(\r\n        256, 256, kernel_size=(3, 3), stride=(1, 1), padding=(1, 1)\r\n        (activation): ReLU()\r\n      )\r\n      (objectness_logits): Conv2d(256, 3, kernel_size=(1, 1), stride=(1, 1))\r\n      (anchor_deltas): Conv2d(256, 12, kernel_size=(1, 1), stride=(1, 1))\r\n    )\r\n    (anchor_generator): DefaultAnchorGenerator(\r\n      (cell_anchors): BufferList()\r\n    )\r\n  )\r\n  (roi_heads): StandardROIHeads(\r\n    (box_pooler): ROIPooler(\r\n      (level_poolers): ModuleList(\r\n        (0): ROIAlign(output_size=(7, 7), spatial_scale=0.25, sampling_ratio=0, aligned=True)\r\n        (1): ROIAlign(output_size=(7, 7), spatial_scale=0.125, sampling_ratio=0, aligned=True)\r\n        (2): ROIAlign(output_size=(7, 7), spatial_scale=0.0625, sampling_ratio=0, aligned=True)\r\n        (3): ROIAlign(output_size=(7, 7), spatial_scale=0.03125, sampling_ratio=0, aligned=True)\r\n      )\r\n    )\r\n    (box_head): FastRCNNConvFCHead(\r\n      (flatten): Flatten(start_dim=1, end_dim=-1)\r\n      (fc1): Linear(in_features=12544, out_features=1024, bias=True)\r\n      (fc_relu1): ReLU()\r\n      (fc2): Linear(in_features=1024, out_features=1024, bias=True)\r\n      (fc_relu2): ReLU()\r\n    )\r\n    (box_predictor): FastRCNNOutputLayers(\r\n      (cls_score): Linear(in_features=1024, out_features=2, bias=True)\r\n      (bbox_pred): Linear(in_features=1024, out_features=4, bias=True)\r\n    )\r\n    (mask_pooler): ROIPooler(\r\n      (level_poolers): ModuleList(\r\n        (0): ROIAlign(output_size=(14, 14), spatial_scale=0.25, sampling_ratio=0, aligned=True)\r\n        (1): ROIAlign(output_size=(14, 14), spatial_scale=0.125, sampling_ratio=0, aligned=True)\r\n        (2): ROIAlign(output_size=(14, 14), spatial_scale=0.0625, sampling_ratio=0, aligned=True)\r\n        (3): ROIAlign(output_size=(14, 14), spatial_scale=0.03125, sampling_ratio=0, aligned=True)\r\n      )\r\n    )\r\n    (mask_head): MaskRCNNConvUpsampleHead(\r\n      (mask_fcn1): Conv2d(\r\n        256, 256, kernel_size=(3, 3), stride=(1, 1), padding=(1, 1)\r\n        (activation): ReLU()\r\n      )\r\n      (mask_fcn2): Conv2d(\r\n        256, 256, kernel_size=(3, 3), stride=(1, 1), padding=(1, 1)\r\n        (activation): ReLU()\r\n      )\r\n      (mask_fcn3): Conv2d(\r\n        256, 256, kernel_size=(3, 3), stride=(1, 1), padding=(1, 1)\r\n        (activation): ReLU()\r\n      )\r\n      (mask_fcn4): Conv2d(\r\n        256, 256, kernel_size=(3, 3), stride=(1, 1), padding=(1, 1)\r\n        (activation): ReLU()\r\n      )\r\n      (deconv): ConvTranspose2d(256, 256, kernel_size=(2, 2), stride=(2, 2))\r\n      (deconv_relu): ReLU()\r\n      (predictor): Conv2d(256, 1, kernel_size=(1, 1), stride=(1, 1))\r\n    )\r\n  )\r\n)\r\n[10/29 22:29:50 d2.data.build]: Removed 0 images with no usable annotations. 61 images left.\r\n[10/29 22:29:50 d2.data.build]: Distribution of instances among all 1 categories:\r\n\r\n|  category  | #instances   |\r\n|:----------:|:-------------|\r\n|  balloon   | 255          |\r\n|            |              |\r\n\r\n[10/29 22:29
…
        "body": "Same here, detectron2 faster_rcnn_R_50_FPN_3x and mask_rcnn_X_101_32x8d_FPN_3x simply ignore huge amounts of text"
      }
    ]
  },
  {
    "issue_number": 5327,
    "title": "axis 1 is out of bounds for array of dimension 1",
    "author": "14790897",
    "state": "open",
    "created_at": "2024-07-16T13:32:24Z",
    "updated_at": "2024-07-16T13:41:25Z",
    "labels": [],
    "body": "# code:\r\nhttps://www.kaggle.com/code/liuweiq/coincide-separation-detectron2-training\r\n## Environment:\r\nkaggle \r\n# error:\r\n\r\n``` \r\n[07/16 13:14:44 d2.engine.defaults]: Model:\r\nGeneralizedRCNN(\r\n  (backbone): FPN(\r\n    (fpn_lateral2): Conv2d(256, 256, kernel_size=(1, 1), stride=(1, 1))\r\n    (fpn_output2): Conv2d(256, 256, kernel_size=(3, 3), stride=(1, 1), padding=(1, 1))\r\n    (fpn_lateral3): Conv2d(512, 256, kernel_size=(1, 1), stride=(1, 1))\r\n    (fpn_output3): Conv2d(256, 256, kernel_size=(3, 3), stride=(1, 1), padding=(1, 1))\r\n    (fpn_lateral4): Conv2d(1024, 256, kernel_size=(1, 1), stride=(1, 1))\r\n    (fpn_output4): Conv2d(256, 256, kernel_size=(3, 3), stride=(1, 1), padding=(1, 1))\r\n    (fpn_lateral5): Conv2d(2048, 256, kernel_size=(1, 1), stride=(1, 1))\r\n    (fpn_output5): Conv2d(256, 256, kernel_size=(3, 3), stride=(1, 1), padding=(1, 1))\r\n    (top_block): LastLevelMaxPool()\r\n    (bottom_up): ResNet(\r\n      (stem): BasicStem(\r\n        (conv1): Conv2d(\r\n          3, 64, kernel_size=(7, 7), stride=(2, 2), padding=(3, 3), bias=False\r\n          (norm): FrozenBatchNorm2d(num_features=64, eps=1e-05)\r\n        )\r\n      )\r\n      (res2): Sequential(\r\n        (0): BottleneckBlock(\r\n          (shortcut): Conv2d(\r\n            64, 256, kernel_size=(1, 1), stride=(1, 1), bias=False\r\n            (norm): FrozenBatchNorm2d(num_features=256, eps=1e-05)\r\n          )\r\n          (conv1): Conv2d(\r\n            64, 64, kernel_size=(1, 1), stride=(1, 1), bias=False\r\n            (norm): FrozenBatchNorm2d(num_features=64, eps=1e-05)\r\n          )\r\n          (conv2): Conv2d(\r\n            64, 64, kernel_size=(3, 3), stride=(1, 1), padding=(1, 1), bias=False\r\n            (norm): FrozenBatchNorm2d(num_features=64, eps=1e-05)\r\n          )\r\n          (conv3): Conv2d(\r\n            64, 256, kernel_size=(1, 1), stride=(1, 1), bias=False\r\n            (norm): FrozenBatchNorm2d(num_features=256, eps=1e-05)\r\n          )\r\n        )\r\n        (1): BottleneckBlock(\r\n          (conv1): Conv2d(\r\n            256, 64, kernel_size=(1, 1), stride=(1, 1), bias=False\r\n            (norm): FrozenBatchNorm2d(num_features=64, eps=1e-05)\r\n          )\r\n          (conv2): Conv2d(\r\n            64, 64, kernel_size=(3, 3), stride=(1, 1), padding=(1, 1), bias=False\r\n            (norm): FrozenBatchNorm2d(num_features=64, eps=1e-05)\r\n          )\r\n          (conv3): Conv2d(\r\n            64, 256, kernel_size=(1, 1), stride=(1, 1), bias=False\r\n            (norm): FrozenBatchNorm2d(num_features=256, eps=1e-05)\r\n          )\r\n        )\r\n        (2): BottleneckBlock(\r\n          (conv1): Conv2d(\r\n            256, 64, kernel_size=(1, 1), stride=(1, 1), bias=False\r\n            (norm): FrozenBatchNorm2d(num_features=64, eps=1e-05)\r\n          )\r\n          (conv2): Conv2d(\r\n            64, 64, kernel_size=(3, 3), stride=(1, 1), padding=(1, 1), bias=False\r\n            (norm): FrozenBatchNorm2d(num_features=64, eps=1e-05)\r\n          )\r\n          (conv3): Conv2d(\r\n            64, 256, kernel_size=(1, 1), stride=(1, 1), bias=False\r\n            (norm): FrozenBatchNorm2d(num_features=256, eps=1e-05)\r\n          )\r\n        )\r\n      )\r\n      (res3): Sequential(\r\n        (0): BottleneckBlock(\r\n          (shortcut): Conv2d(\r\n            256, 512, kernel_size=(1, 1), stride=(2, 2), bias=False\r\n            (norm): FrozenBatchNorm2d(num_features=512, eps=1e-05)\r\n          )\r\n          (conv1): Conv2d(\r\n            256, 128, kernel_size=(1, 1), stride=(2, 2), bias=False\r\n            (norm): FrozenBatchNorm2d(num_features=128, eps=1e-05)\r\n          )\r\n          (conv2): Conv2d(\r\n            128, 128, kernel_size=(3, 3), stride=(1, 1), padding=(1, 1), bias=False\r\n            (norm): FrozenBatchNorm2d(num_features=128, eps=1e-05)\r\n          )\r\n          (conv3): Conv2d(\r\n            128, 512, kernel_size=(1, 1), stride=(1, 1), bias=False\r\n            (norm): FrozenBatchNorm2d(num_features=512, eps=1e-05)\r\n          )\r\n        )\r\n        (1): BottleneckBlock(\r\n          (conv1): Conv2d(\r\n            512, 128, kernel_size=(1, 1), stride=(1, 1), bias=False\r\n            (norm): FrozenBatchNorm2d(num_features=128, eps=1e-05)\r\n          )\r\n          (conv2): Conv2d(\r\n            128, 128, kernel_size=(3, 3), stride=(1, 1), padding=(1, 1), bias=False\r\n            (norm): FrozenBatchNorm2d(num_features=128, eps=1e-05)\r\n          )\r\n          (conv3): Conv2d(\r\n            128, 512, kernel_size=(1, 1), stride=(1, 1), bias=False\r\n            (norm): FrozenBatchNorm2d(num_features=512, eps=1e-05)\r\n          )\r\n        )\r\n        (2): BottleneckBlock(\r\n          (conv1): Conv2d(\r\n            512, 128, kernel_size=(1, 1), stride=(1, 1), bias=False\r\n            (norm): FrozenBatchNorm2d(num_features=128, eps=1e-05)\r\n          )\r\n          (conv2): Conv2d(\r\n            128, 128, kernel_size=(3, 3), stride=(1, 1), padding=(1, 1), bias=False\r\n            (norm): FrozenBatchNorm2d(num_features=128, eps=1e-05)\r\n          )\r\n          (conv3): Conv2d(\r\n            128, 512, kernel_size=(1, 1), stride=(1, 1), bias=False\r\n            (norm): FrozenBatchNorm2d(num_features=512, eps=1e-05)\r\n          )\r\n        )\r\n        (3): BottleneckBlock(\r\n          (conv1): Conv2d(\r\n            512, 128, kernel_size=(1, 1), stride=(1, 1), bias=False\r\n            (norm): FrozenBatchNorm2d(num_features=128, eps=1e-05)\r\n          )\r\n          (conv2): Conv2d(\r\n            128, 128, kernel_size=(3, 3), stride=(1, 1), padding=(1, 1), bias=False\r\n            (norm): FrozenBatchNorm2d(num_features=128, eps=1e-05)\r\n          )\r\n          (conv3): Conv2d(\r\n            128, 512, kernel_size=(1, 1), stride=(1, 1), bias=False\r\n            (norm): FrozenBatchNorm2d(num_features=512, eps=1e-05)\r\n          )\r\n        )\r\n      )\r\n      (res4): Sequential(\r\n        (0): BottleneckBlock(\r\n          (shortcut): Conv2d(\r\n            512, 1024, kernel_size=(1, 1), stride=(2, 2), bias=False\r\n            (norm): FrozenBatchNorm2d(num_features=1024, eps=1e-05)\r\n          )\r\n          (conv1): Conv2d(\r\n            512, 256, kernel_size=(1, 1), stride=(2, 2), bias=False\r\n            (norm): FrozenBatchNorm2d(num_features=256, eps=1e-05)\r\n          )\r\n          (conv2): Conv2d(\r\n            256, 256, kernel_size=(3, 3), stride=(1, 1), padding=(1, 1), bias=False\r\n            (norm): FrozenBatchNorm2d(num_features=256, eps=1e-05)\r\n          )\r\n          (conv3): Conv2d(\r\n            256, 1024, kernel_size=(1, 1), stride=(1, 1), bias=False\r\n            (norm): FrozenBatchNorm2d(num_features=1024, eps=1e-05)\r\n          )\r\n        )\r\n        (1): BottleneckBlock(\r\n          (conv1): Conv2d(\r\n            1024, 256, kernel_size=(1, 1), stride=(1, 1), bias=False\r\n            (norm): FrozenBatchNorm2d(num_features=256, eps=1e-05)\r\n          )\r\n          (conv2): Conv2d(\r\n            256, 256, kernel_size=(3, 3), stride=(1, 1), padding=(1, 1), bias=False\r\n            (norm): FrozenBatchNorm2d(num_features=256, eps=1e-05)\r\n          )\r\n          (conv3): Conv2d(\r\n            256, 1024, kernel_size=(1, 1), stride=(1, 1), bias=False\r\n            (norm): FrozenBatchNorm2d(num_features=1024, eps=1e-05)\r\n          )\r\n        )\r\n        (2): BottleneckBlock(\r\n          (conv1): Conv2d(\r\n            1024, 256, kernel_size=(1, 1), stride=(1, 1), bias=False\r\n            (norm): FrozenBatchNorm2d(num_features=256, eps=1e-05)\r\n          )\r\n          (conv2): Conv2d(\r\n            256, 256, kernel_size=(3, 3), stride=(1, 1), padding=(1, 1), bias=False\r\n            (norm): FrozenBatchNorm2d(num_features=256, eps=1e-05)\r\n          )\r\n          (conv3): Conv2d(\r\n            256, 1024, kernel_size=(1, 1), stride=(1, 1), bias=False\r\n            (norm): FrozenBatchNorm2d(num_features=1024, eps=1e-05)\r\n          )\r\n        )\r\n        (3): BottleneckBlock(\r\n          (conv1): Conv2d(\r\n            1024, 256, kernel_size=(1, 1), stride=(1, 1), bias=False\r\n            (norm): FrozenBatchNorm2d(num_features=256, eps=1e-05)\r\n          )\r\n          (conv2): Conv2d(\r\n            256, 256, kernel_size=(3, 3), stride=(1, 1), padding=(1, 1), bias=False\r\n            (norm): FrozenBatchNorm2d(num_features=256, eps=1e-05)\r\n          )\r\n          (conv3): Conv2d(\r\n            256, 1024, kernel_size=(1, 1), stride=(1, 1), bias=False\r\n            (norm): FrozenBatchNorm2d(num_features=1024, eps=1e-05)\r\n          )\r\n        )\r\n        (4): BottleneckBlock(\r\n          (conv1): Conv2d(\r\n            1024, 256, kernel_size=(1, 1), stride=(1, 1), bias=False\r\n            (norm): FrozenBatchNorm2d(num_features=256, eps=1e-05)\r\n          )\r\n          (conv2): Conv2d(\r\n            256, 256, kernel_size=(3, 3), stride=(1, 1), padding=(1, 1), bias=False\r\n            (norm): FrozenBatchNorm2d(num_features=256, eps=1e-05)\r\n          )\r\n          (conv3): Conv2d(\r\n            256, 1024, kernel_size=(1, 1), stride=(1, 1), bias=False\r\n            (norm): FrozenBatchNorm2d(num_features=1024, eps=1e-05)\r\n          )\r\n        )\r\n        (5): BottleneckBlock(\r\n          (conv1): Conv2d(\r\n            1024, 256, kernel_size=(1, 1), stride=(1, 1), bias=False\r\n            (norm): FrozenBatchNorm2d(num_features=256, eps=1e-05)\r\n          )\r\n          (conv2): Conv2d(\r\n            256, 256, kernel_size=(3, 3), stride=(1, 1), padding=(1, 1), bias=False\r\n            (norm): FrozenBatchNorm2d(num_features=256, eps=1e-05)\r\n          )\r\n          (conv3): Conv2d(\r\n            256, 1024, kernel_size=(1, 1), stride=(1, 1), bias=False\r\n            (norm): FrozenBatchNorm2d(num_features=1024, eps=1e-05)\r\n          )\r\n        )\r\n      )\r\n      (res5): Sequential(\r\n        (0): BottleneckBlock(\r\n          (shortcut): Conv2d(\r\n            1024, 2048, kernel_size=(1, 1), stride=(2, 2), bias=False\r\n            (norm): FrozenBatchNorm2d(num_features=2048, eps=1e-05)\r\n          )\r\n          (conv1): Conv2d(\r\n            1024, 512, kernel_size=(1, 1), stride=(2, 2), bias=False\r\n            (norm): FrozenBatchNorm2d(num_features=512, eps=1e-05)\r\n          )\r\n          (conv2): Conv2d(\r\n            512, 512, kernel_size=(3, 3), stride=(1, 1), padding=(1, 1), bias=False\r\n            (norm): FrozenBatchNorm2d(num_features=512, eps=1e-05)\r\n          )\r\n          (conv3): Conv2d(\r\n            512, 2048, kernel_size=(1, 1), stride=(1, 1), bias=False\r\n            (norm): FrozenBatchNorm2d(num_features=2048, eps=1e-05)\r\n          )\r\n        )\r\n        (1): BottleneckBlock(\r\n          (conv1): Conv2d(\r\n            2048, 512, kernel_size=(1, 1), stride=(1, 1), bias=False\r\n            (norm): FrozenBatchNorm2d(num_features=512, eps=1e-05)\r\n          )\r\n          (conv2): Conv2d(\r\n            512, 512, kernel_size=(3, 3), stride=(1, 1), padding=(1, 1), bias=False\r\n            (norm): FrozenBatchNorm2d(num_features=512, eps=1e-05)\r\n          )\r\n          (conv3): Conv2d(\r\n            512, 2048, kernel_size=(1, 1), stride=(1, 1), bias=False\r\n            (norm): FrozenBatchNorm2d(num_features=2048, eps=1e-05)\r\n          )\r\n        )\r\n        (2): BottleneckBlock(\r\n          (conv1): Conv2d(\r\n            2048, 512, kernel_size=(1, 1), stride=(1, 1), bias=False\r\n            (norm): FrozenBatchNorm2d(num_features=512, eps=1e-05)\r\n          )\r\n          (conv2): Conv2d(\r\n            512, 512, kernel_size=(3, 3), stride=(1, 1), padding=(1, 1), bias=False\r\n            (norm): FrozenBatchNorm2d(num_features=512, eps=1e-05)\r\n          )\r\n          (conv3): Conv2d(\r\n            512, 2048, kernel_size=(1, 1), stride=(1, 1), bias=False\r\n            (norm): FrozenBatchNorm2d(num_features=2048, eps=1e-05)\r\n          )\r\n        )\r\n      )\r\n    )\r\n  )\r\n  (proposal_generator): RPN(\r\n    (rpn_head): StandardRPNHead(\r\n      (conv): Conv2d(\r\n        256, 256, kernel_size=(3, 3), stride=(1, 1), padding=(1, 1)\r\n        (activation): ReLU()\r\n      )\r\n      (objectness_logits): Conv2d(256, 3, kernel_size=(1, 1), stride=(1, 1))\r\n      (anchor_deltas): Conv2d(256, 12, kernel_size=(1, 1), stride=(1, 1))\r\n    )\r\n    (anchor_generator): DefaultAnchorGenerator(\r\n      (cell_anchors): BufferList()\r\n    )\r\n  )\r\n  (roi_heads): StandardROIHeads(\r\n    (box_pooler): ROIPooler(\r\n      (level_poolers): ModuleList(\r\n        (0): ROIAlign(output_size=(7, 7), spatial_scale=0.25, sampling_ratio=0, aligned=True)\r\n        (1): ROIAlign(output_size=(7, 7), spatial_scale=0.125, sampling_ratio=0, aligned=True)\r\n        (2): ROIAlign(output_size=(7, 7), spatial_scale=0.0625, sampling_ratio=0, aligned=True)\r\n        (3): ROIAlign(output_size=(7, 7), spatial_scale=0.03125, sampling_ratio=0, aligned=True)\r\n      )\r\n    )\r\n    (box_head): FastRCNNConvFCHead(\r\n      (flatten): Flatten(start_dim=1, end_dim=-1)\r\n      (fc1): Linear(in_features=12544, out_features=1024, bias=True)\r\n      (fc_relu1): ReLU()\r\n      (fc2): Linear(in_features=1024, out_features=1024, bias=True)\r\n      (fc_relu2): ReLU()\r\n    )\r\n    (box_predictor): FastRCNNOutputLayers(\r\n      (cls_score): Linear(in_features=1024, out_features=3, bias=True)\r\n      (bbox_pred): Linear(in_features=1024, out_features=8, bias=True)\r\n    )\r\n    (mask_pooler): ROIPooler(\r\n      (level_poolers): ModuleList(\r\n        (0): ROIAlign(output_size=(14, 14), spatial_scale=0.25, sampling_ratio=0, aligned=True)\r\n        (1): ROIAlign(output_size=(14, 14), spatial_scale=0.125, sampling_ratio=0, aligned=True)\r\n        (2): ROIAlign(output_size=(14, 14), spatial_scale=0.0625, sampling_ratio=0, aligned=True)\r\n        (3): ROIAlign(output_size=(14, 14), spatial_scale=0.03125, sampling_ratio=0, aligned=True)\r\n      )\r\n    )\r\n    (mask_head): MaskRCNNConvUpsampleHead(\r\n      (mask_fcn1): Conv2d(\r\n        256, 256, kernel_size=(3, 3), stride=(1, 1), padding=(1, 1)\r\n        (activation): ReLU()\r\n      )\r\n      (mask_fcn2): Conv2d(\r\n        256, 256, kernel_size=(3, 3), stride=(1, 1), padding=(1, 1)\r\n        (activation): ReLU()\r\n      )\r\n      (mask_fcn3): Conv2d(\r\n        256, 256, kernel_size=(3, 3), stride=(1, 1), padding=(1, 1)\r\n        (activation): ReLU()\r\n      )\r\n      (mask_fcn4): Conv2d(\r\n        256, 256, kernel_size=(3, 3), stride=(1, 1), padding=(1, 1)\r\n        (activation): ReLU()\r\n      )\r\n      (deconv): ConvTranspose2d(256, 256, kernel_size=(2, 2), stride=(2, 2))\r\n      (deconv_relu): ReLU()\r\n      (predictor): Conv2d(256, 2, kernel_size=(1, 1), stride=(1, 1))\r\n    )\r\n  )\r\n)\r\n[07/16 13:14:44 d2.data.datasets.coco]: Loaded 161 images in COCO format from /kaggle/input/coco-data/instances.json\r\n[07/16 13:14:44 d2.data.build]: Removed 0 images with no usable annotations. 161 images left.\r\n[07/16 13:14:44 d2.data.dataset_mapper]: [DatasetMapper] Augmentations used in training: [ResizeShortestEdge(short_e
…
