…
p_bias_lr=0.1, box=7.5, cls=0.5, dfl=1.5, pose=12.0, kobj=1.0, nbs=64, hsv_h=0.015, hsv_s=0.7, hsv_v=0.4, degrees=0.0, translate=0.1, scale=0.5, shear=0.0, perspective=0.0, flipud=0.0, fliplr=0.5, bgr=0.0, mosaic=1.0, mixup=0.0, copy_paste=0.0, copy_paste_mode=flip, auto_augment=randaugment, erasing=0.4, crop_fraction=1.0, cfg=None, tracker=botsort.yaml, save_dir=runs/detect/yolov8_custom3\nOverriding model.yaml nc=80 with nc=5\n\n                   from  n    params  module                                       arguments                     \n  0                  -1  1      1392  ultralytics.nn.modules.conv.Conv             [3, 48, 3, 2]                 \n  1                  -1  1     41664  ultralytics.nn.modules.conv.Conv             [48, 96, 3, 2]                \n  2                  -1  2    111360  ultralytics.nn.modules.block.C2f             [96, 96, 2, True]             \n  3                  -1  1    166272  ultralytics.nn.modules.conv.Conv             [96, 192, 3, 2]               \n  4                  -1  4    813312  ultralytics.nn.modules.block.C2f             [192, 192, 4, True]           \n  5                  -1  1    664320  ultralytics.nn.modules.conv.Conv             [192, 384, 3, 2]              \n  6                  -1  4   3248640  ultralytics.nn.modules.block.C2f             [384, 384, 4, True]           \n  7                  -1  1   1991808  ultralytics.nn.modules.conv.Conv             [384, 576, 3, 2]              \n  8                  -1  2   3985920  ultralytics.nn.modules.block.C2f             [576, 576, 2, True]           \n  9                  -1  1    831168  ultralytics.nn.modules.block.SPPF            [576, 576, 5]                 \n 10                  -1  1         0  torch.nn.modules.upsampling.Upsample         [None, 2, 'nearest']          \n 11             [-1, 6]  1         0  ultralytics.nn.modules.conv.Concat           [1]                           \n 12                  -1  2   1993728  ultralytics.nn.modules.block.C2f             [960, 384, 2]                 \n 13                  -1  1         0  torch.nn.modules.upsampling.Upsample         [None, 2, 'nearest']          \n 14             [-1, 4]  1         0  ultralytics.nn.modules.conv.Concat           [1]                           \n 15                  -1  2    517632  ultralytics.nn.modules.block.C2f             [576, 192, 2]                 \n 16                  -1  1    332160  ultralytics.nn.modules.conv.Conv             [192, 192, 3, 2]              \n 17            [-1, 12]  1         0  ultralytics.nn.modules.conv.Concat           [1]                           \n...\nTensorBoard: Start with 'tensorboard --logdir runs/detect/yolov8_custom3', view at http://localhost:6006/\nFreezing layer 'model.22.dfl.conv.weight'\nAMP: running Automatic Mixed Precision (AMP) checks...\nAMP: checks passed âœ…\nOutput is truncated. View as a [scrollable element](command:cellOutput.enableScrolling?c56fa883-3627-4114-bc78-1ed71e3193ef) or open i
…
0, flipud=0.0, fliplr=0.5, bgr=0.0, mosaic=1.0, mixup=0.0, copy_paste=0.0, copy_paste_mode=flip, auto_augment=randaugment, erasing=0.4, crop_fraction=1.0, cfg=None, tracker=botsort.yaml, save_dir=runs/detect/yolov8_custom4\nDownloading https://ultralytics.com/assets/Arial.ttf to '/root/.config/Ultralytics/Arial.ttf'...\n100%|â–ˆâ–ˆâ–ˆâ–ˆâ–ˆâ–ˆâ–ˆâ–ˆâ–ˆâ–ˆ| 755k/755k [00:00<00:00, 16.9MB/s]\nOverriding model.yaml nc=80 with nc=5\n\n                   from  n    params  module                                       arguments                     \n  0                  -1  1      1392  ultralytics.nn.modules.conv.Conv             [3, 48, 3, 2]                 \n  1                  -1  1     41664  ultralytics.nn.modules.conv.Conv             [48, 96, 3, 2]                \n  2                  -1  2    111360  ultralytics.nn.modules.block.C2f             [96, 96, 2, True]             \n  3                  -1  1    166272  ultralytics.nn.modules.conv.Conv             [96, 192, 3, 2]               \n  4                  -1  4    813312  ultralytics.nn.modules.block.C2f             [192, 192, 4, True]           \n  5                  -1  1    664320  ultralytics.nn.modules.conv.Conv             [192, 384, 3, 2]              \n  6                  -1  4   3248640  ultralytics.nn.modules.block.C2f             [384, 384, 4, True]           \n  7                  -1  1   1991808  ultralytics.nn.modules.conv.Conv             [384, 576, 3, 2]              \n  8                  -1  2   3985920  ultralytics.nn.modules.block.C2f             [576, 576, 2, True]           \n  9                  -1  1    831168  ultralytics.nn.modules.block.SPPF            [576, 576, 5]                 \n 10                  -1  1         0  torch.nn.modules.upsampling.Upsample         [None, 2, 'nearest']          \n 11             [-1, 6]  1         0  ultralytics.nn.modules.conv.Concat           [1]                           \n 12                  -1  2   1993728  ultralytics.nn.modules.block.C2f             [960, 384, 2]                 \n 13                  -1  1         0  torch.nn.modules.upsampling.Upsample         [None, 2, 'nearest']          \n 14             [-1, 4]  1         0  ultralytics.nn.modules.conv.Concat           [1]                           \n 15                  -1  2    517632  ultralytics.nn.modules.block.C2f             [576, 192, 2]                 \n 16                  -1  1    332160  ultralytics.nn.modules.conv.Conv             [192, 192, 3, 2]              \n 17            [-1, 12]  1         0  ultralytics.nn.modules.conv.Concat           [1]                           \n 18                  -1  2   1846272  ultralytics.nn.modules.block.C2f             [576, 384, 2]                 \n 19                  -1  1   1327872  ultralytics.nn.modules.conv.Conv             [384, 384, 3, 2]              \n 20             [-1, 9]  1         0  ultralytics.nn.modules.conv.Concat           [1]                           \n 21                  -1  2   4207104  ultralytics.nn.modules.block.C2f             [960, 576, 2]                 \n 22        [15, 18, 21]  1   3778591  ultralytics.nn.modules.head.Detect           [5, [192, 384, 576]]          \nModel summary: 295 layers, 25,859,215 parameters, 25,859,199 gradients, 79.1 GFLOPs\n\nTransferred 469/475 items from pretrained weights\nDDP: debug command /usr/bin/python3 -m torch.distributed.run --nproc_per_node 2 --master_port 50831 /root/.config/Ultralytics/DDP/_temp_4t1q3l3o139581780929232.py\nUltralytics 8.3.62 ðŸš€ Python-3.10.12 torch-2.5.1+cu121 CUDA:0 (Te
…
0mlr0=0.01, lrf=0.2, momentum=0.937, weight_decay=0.0005, warmup_epochs=3.0, warmup_momentum=0.8, warmup_bias_lr=0.1, box=0.05, cls=0.0375, cls_pw=1.0, obj=1.0, obj_pw=1.0, iou_t=0.2, anchor_t=4.0, fl_gamma=0.0, hsv_h=0.015, hsv_s=0.7, hsv_v=0.4, degrees=0.0, translate=0.1, scale=0.5, shear=0.0, perspective=0.0, flipud=0.0, fliplr=0.5, mosaic=1.0, mixup=0.0, label_smoothing=0.0\r\n2024-12-12 14:37:47,177 - INFO - \r\n                 from  n    params  module                                  arguments                     \r\n2024-12-12 14:37:47,181 - INFO -   0                -1  1      7040  models.common.Focus                     [3, 64, 3]                    \r\n2024-12-12 14:37:47,182 - INFO -   1                -1  1     73984  models.common.Conv                      [64, 128, 3, 2]               \r\n2024-12-12 14:37:47,185 - INFO -   2                -1  1    156928  models.common.C3                        [128, 128, 3]                 \r\n2024-12-12 14:37:47,187 - INFO -   3                -1  1    295424  models.common.Conv                      [128, 256, 3, 2]              \r\n2024-12-12 14:37:47,199 - INFO -   4                -1  1   1611264  models.common.C3                        [256, 256, 9]                 \r\n2024-12-12 14:37:47,205 - INFO -   5                -1  1   1180672  models.common.Conv                      [256, 512, 3, 2]              \r\n2024-12-12 14:37:47,248 - INFO -   6                -1  1   6433792  models.common.C3                        [512, 512, 9]                 \r\n2024-12-12 14:37:47,277 - INFO -   7                -1  1   4720640  models.common.Conv                      [512, 1024, 3, 2]             \r\n2024-12-12 14:37:47,296 - INFO -   8                -1  1   2624512  models.common.SPP                       [1024, 1024, [5, 9, 13]]      \r\n2024-12-12 14:37:47,359 - INFO -   9                -1  1   9971712  models.common.C3                        [1024, 1024, 3, False]        \r\n2024-12-12 14:37:47,363 - INFO -  10                -1  1    525312  models.common.Conv                      [1024, 512, 1, 1]             \r\n2024-12-12 14:37:47,363 - INFO -  11                -1  1         0  torch.nn.modules.upsampling.Upsample    [None, 2, 'nearest']          \r\n2024-12-12 14:37:47,363 - INFO -  12           [-1, 6]  1         0  models.common.Concat                    [1]                           \r\n2024-12-12 14:37:47,382 - INFO -  13                -1  1   2757632  models.common.C3                        [1024, 512, 3, False]         \r\n2024-12-12 14:37:47,383 - INFO -  14                -1  1    131584  models.common.Conv                      [512, 256, 1, 1]              \r\n2024-12-12 14:37:47,383 - INFO -  15                -1  1         0  torch.nn.modules.upsampling.Upsample    [None, 2, 'nearest']          \r\n2024-12-12 14:37:47,383 - INFO -  16           [-1, 4]  1         0  models.common.Concat                    [1]                           \r\n2024-12-12 14:37:47,390 - INFO -  17                -1  1    690688  models.common.C3                        [512, 256, 3, False]          \r\n2024-12-12 14:37:47,394 - INFO -  18                -1  1    590336  models.common.Conv                      [256, 256, 3, 2]              \r\n2024-12-12 14:37:47,394 - INFO -  19          [-1, 14]  1         0  models.common.Concat                    [1]                           \r\n2024-12-12 14:37:47,411 - INFO -  20                -1  1   2495488  models.common.C3                        [512, 512, 3, False]          \r\n2024-12-12 14:37:47,426 - INFO -  21                -1  1   2360320  models.common.Conv                      [512, 512, 3, 2]              \r\n2024-12-12 14:37:47,426 - INFO -  22          [-1, 10]  1         0  models.common.Concat                    [1]                           \r\n2024-12-12 14:37:47,490 - INFO -  23                -1  1   9971712  models.common.C3                        [1024, 1024, 3, False]        \r\n2024-12-12 14:37:47,491 - INFO -  24      [17, 20, 23]  1     59235  models.yolo.Detect                      [6, [[10, 13, 16, 30, 33, 23], [30, 61, 62, 45, 59, 119], [116, 90, 156, 198, 373, 326]], [256, 512, 1024]]\r\n2024-12-12 14:37:47,781 - INFO - Model Summary: 499 layers, 46658275 parameters, 46658275 gradients, 114.6 GFLOPS\r\n2024-12-12 14:37:47,781 - INFO
…
