…
cls=0.5, dfl=1.5, pos_weight=[1], pose=12.0, kobj=1.0, nbs=64, hsv_h=0.015, hsv_s=0.7, hsv_v=0.4, degrees=0.0, translate=0.1, sc\nale=0.9, shear=0.0, perspective=0.0, flipud=0.0, fliplr=0.5, bgr=0.0, mosaic=1.0, mixup=0.2, copy_paste=0.6, copy_paste_mode=flip, auto_augment=randaugment, erasing=0.4, crop\n_fraction=1.0, cfg=None, tracker=botsort.yaml, save_dir=runs-you1200s-FB-class_weights-testgpu\\train\\exp6\nOverriding model.yaml nc=80 with nc=4\n\n                   from  n    params  module                                       arguments\n  0                  -1  1         0  ultralytics.nn.modules.block.InputWrapper    [3]\n  1                   0  1       928  ultralytics.nn.modules.conv.Conv             [3, 32, 3, 2]\n  2                   0  1     76519  ultralytics.nn.modules.FBM.FrequencyBranch   [64, 4]\n  3                   1  1     18560  ultralytics.nn.modules.conv.Conv             [32, 64, 3, 2]\n  4                  -1  1     26080  ultralytics.nn.modules.block.C3k2            [64, 128, 1, False, 0.25]\n  5             [-1, 2]  1         0  ultralytics.nn.modules.conv.Concat           [1]\n  6                  -1  1    221440  ultralytics.nn.modules.conv.Conv             [192, 128, 3, 2]\n  7                  -1  1    103360  ultralytics.nn.modules.block.C3k2            [128, 256, 1, False, 0.25]\n  8                  -1  1    590336  ultralytics.nn.modules.conv.Conv             [256, 256, 3, 2]\n  9                  -1  2    689408  ultralytics.nn.modules.block.A2C2f           [256, 256, 2, True, 4]\n 10                  -1  1   1180672  ultralytics.nn.modules.conv.Conv             [256, 512, 3, 2]\n 11                  -1  2   2689536  ultralytics.nn.modules.block.A2C2f           [512, 512, 2, True, 1]\n 12                  -1  1         0  torch.nn.modules.upsampling.Upsample         [None, 2, 'nearest']\n 13             [-1, 9]  1         0  ultralytics.nn.modules.conv.Concat           [1]\n 14                  -1  1    345856  ultralytics.nn.modules.block.A2C2f           [768, 256, 1, False, -1]\n 15                  -1  1         0  torch.nn.modules.upsampling.Upsample         [None, 2, 'nearest']\n 16             [-1, 7]  1         0  ultralytics.nn.modules.conv.Concat           [1]\n 17                  -1  1     95104  ultralytics.nn.modules.block.A2C2f           [512, 128, 1, False, -1]\n 18                  -1  1    147712  ultralytics.nn.modules.conv.Conv             [128, 128, 3, 2]\n 19            [-1, 14]  1         0  ultralytics.nn.modules.conv.Concat           [1]\n 20                  -1  1    296704  ultralytics.nn.modules.block.A2C2f           [384, 256, 1, False, -1]\n 21                  -1  1    590336  ultralytics.nn.modules.conv.Conv             [256, 256, 3, 2]\n 22            [-1, 11]  1         0  ultralytics.nn.modules.conv.Concat           [1]\n 23                  -1  1   1511424  ultralytics.nn.modules.block.C3k2            [768, 512, 1, True]\n 24        [17, 20, 23]  1    820956  ultralytics.nn.modules.head.Detect           [4, [128, 256, 512]]\nYOLOv12s-FB summary: 573 layers, 9,404,931 parameters, 9,404,915 gradients, 25.0 GFLOPs\n\nTransferred 839/845 items from pretrained weights\nDDP: debug command C:\\Users\\dzy\\miniconda3\\envs\\yolov5\\python.exe -m torch.distributed.run --nproc_per_node 2 --master_port 54890 C:\\Users\\dzy\\AppData\\Roaming\\yolov12\\DDP\\_te\nmp_icz3tjqs1853797725904.py\n[2025-06-16 20:36:2
…
mup_epochs=3.0, warmup_momentum=0.8, warmup_bias_lr=0.1, box=7.5, cls=0.5, dfl=1.5, pose=12.0, kobj=1.0, nbs=64, hsv_h=0.015, hsv_s=0.7, hsv_v=0.4, degrees=0.0, translate=0.1, scale=0.5, shear=0.0, perspective=0.0, flipud=0.0, fliplr=0.5, bgr=0.0, mosaic=1.0, mixup=0.0, copy_paste=0.0, copy_paste_mode=flip, auto_augment=randaugment, erasing=0.4, crop_fraction=1.0, cfg=None, tracker=botsort.yaml, save_dir=runs/detect/train\r\n\r\n                   from  n    params  module                                       arguments                     \r\n  0                  -1  1       928  ultralytics.nn.modules.conv.Conv             [3, 32, 3, 2]                 \r\n  1                  -1  1     18560  ultralytics.nn.modules.conv.Conv             [32, 64, 3, 2]                \r\n  2                  -1  1     29056  ultralytics.nn.modules.block.C2f             [64, 64, 1, True]             \r\n  3                  -1  1     73984  ultralytics.nn.modules.conv.Conv             [64, 128, 3, 2]               \r\n  4                  -1  2    197632  ultralytics.nn.modules.block.C2f             [128, 128, 2, True]           \r\n  5                  -1  1    295424  ultralytics.nn.modules.conv.Conv             [128, 256, 3, 2]              \r\n  6                  -1  2    788480  ultralytics.nn.modules.block.C2f             [256, 256, 2, True]           \r\n  7                  -1  1   1180672  ultralytics.nn.modules.conv.Conv             [256, 512, 3, 2]              \r\n  8                  -1  1   1838080  ultralytics.nn.modules.block.C2f             [512, 512, 1, True]           \r\n  9                  -1  1    656896  ultralytics.nn.modules.block.SPPF            [512, 512, 5]                 \r\n 10                  -1  1         0  torch.nn.modules.upsampling.Upsample         [None, 2, 'nearest']          \r\n 11             [-1, 6]  1         0  ultralytics.nn.modules.conv.Concat           [1]                           \r\n 12                  -1  1    591360  ultralytics.nn.modules.block.C2f             [768, 256, 1]                 \r\n 13                  -1  1         0  torch.nn.modules.upsampling.Upsample         [None, 2, 'nearest']          \r\n 14             [-1, 4]  1         0  ultralytics.nn.modules.conv.Concat           [1]                           \r\n 15                  -1  1    148224  ultralytics.nn.modules.block.C2f             [384, 128, 1]                 \r\n 16                  -1  1    147712  ultralytics.nn.modules.conv.Conv             [128, 128, 3, 2]              \r\n 17            [-1, 12]  1         0  ultralytics.nn.modules.conv.Concat           [1]                           \r\n 18                  -1  1    493056  ultralytics.nn.modules.block.C2f             [384, 256, 1]                 \r\n 19                  -1  1    590336  ultralytics.nn.modules.conv.Conv             [256, 256, 3, 2]              \r\n 20             [-1, 9]  1         0  ultralytics.nn.modules.conv.Concat           [1]                           \r\n 21                  -1  1   1969152  ultralytics.nn.modules.block.C2f             [768, 512, 1]                 \r\n 22        [15, 18, 21]  1   2147008  ultralytics.nn.modules.head.Detect           [80, [128, 256, 512]]         \r\nModel summary: 225 layers, 11,166,560 parameters, 11,166,544 gradients, 28.8 GFLOPs\r\n\r\nTransferred 355/355 items from pretrained weights\r\nFreezing layer 'model.22.dfl.conv.weight'\r\nAMP: running Automatic Mixed Precision (AMP) checks...\r\nDownloading https://github.com/ultralytics/assets/releases/download/v8.3.0/yolo11n.pt to 'yolo11n.pt'...\r\n100%|███████
…
, save_txt=False, scale=0.5, seed=0, shear=0.0, show=False, show_boxes=True, show_conf=True, show_labels=True, simplify=True, single_cls=False, source=None, split=val, stream_buffer=False, task=segment, time=None, tracker=botsort.yaml, translate=0.1, val=True, verbose=False, vid_stride=1, visualize=False, warmup_bias_lr=0.1, warmup_epochs=3.0, warmup_momentum=0.8, weight_decay=0.0005, workers=8, workspace=None\nOverriding model.yaml nc=80 with nc=1\n\n                   from  n    params  module                                       arguments\n  0                  -1  1      1856  ultralytics.nn.modules.conv.Conv             [3, 64, 3, 2]\n  1                  -1  1     73984  ultralytics.nn.modules.conv.Conv             [64, 128, 3, 2]\n  2                  -1  1    111872  ultralytics.nn.modules.block.C3k2            [128, 256, 1, True, 0.25]\n  3                  -1  1    590336  ultralytics.nn.modules.conv.Conv             [256, 256, 3, 2]\n  4                  -1  1    444928  ultralytics.nn.modules.block.C3k2            [256, 512, 1, True, 0.25]\n  5                  -1  1   2360320  ultralytics.nn.modules.conv.Conv             [512, 512, 3, 2]\n  6                  -1  1   1380352  ultralytics.nn.modules.block.C3k2            [512, 512, 1, True]\n  7                  -1  1   2360320  ultralytics.nn.modules.conv.Conv             [512, 512, 3, 2]\n  8                  -1  1   1380352  ultralytics.nn.modules.block.C3k2            [512, 512, 1, True]\n  9                  -1  1    656896  ultralytics.nn.modules.block.SPPF            [512, 512, 5]\n 10                  -1  1    990976  ultralytics.nn.modules.block.C2PSA           [512, 512, 1]\n 11                  -1  1         0  torch.nn.modules.upsampling.Upsample         [None, 2, 'nearest']\n 12             [-1, 6]  1         0  ultralytics.nn.modules.conv.Concat           [1]\n 13                  -1  1   1642496  ultralytics.nn.modules.block.C3k2            [1024, 512, 1, True]\n 14                  -1  1         0  torch.nn.modules.upsampling.Upsample         [None, 2, 'nearest']\n 15             [-1, 4]  1         0  ultralytics.nn.modules.conv.Concat           [1]\n 16                  -1  1    542720  ultralytics.nn.modules.block.C3k2            [1024, 256, 1, True]\n 17                  -1  1    590336  ultralytics.nn.modules.conv.Conv             [256, 256, 3, 2]\n 18            [-1, 13]  1         0  ultralytics.nn.modules.conv.Concat           [1]\n 19                  -1  1   1511424  ultralytics.nn.modules.block.C3k2            [768, 512, 1, True]\n 20                  -1  1   2360320  ultralytics.nn.modules.conv.Conv             [512, 512, 3, 2]\n 21            [-1, 10]  1         0  ultralytics.nn.modules.conv.Concat           [1]\n 22                  -1  1   1642496  ultralytics.nn.modules.block.C3k2            [1024, 512, 1, True]\n 23        [16, 19, 22]  1   3718003  ultralytics.nn.modules.head.Segment          [1, 32, 256, [256, 512, 512]]\nYOLO11m-seg summary: 253 layers, 22,359,987 parameters, 22,359,971 gradients, 123.6 GFLOPs\n\nTransferred 705/711 items from pretrained weights\nFreezing layer 'model.23.dfl.conv.weight'\nAMP: running Automatic Mixed Precision (AMP) checks...\nAMP: checks passed ✅\ntrain: Fast image access ✅ (ping: 0.0±0.0 ms, read: 2347.8±577.1 MB/s, size: 177.9 KB)\ntrain: Scanning 
…
2.0, kobj=1.0, nbs=64, hsv_h=0.015, hsv_s=0.7, hsv_v=0.4, degrees=0.0, translate=0.1, scale=0.5, shear=0.0, perspective=0.0, flipud=0.0, fliplr=0.5, bgr=0.0, mosaic=1.0, mixup=0.0, copy_paste=0.0, copy_paste_mode=flip, auto_augment=randaugment, erasing=0.4, crop_fraction=1.0, cfg=None, tracker=botsort.yaml, save_dir=w16_241class1_24bkg_251b1pL_500w10b2_934w11b3_431w12b4_dummy2500train50val_imgsz1280ep600/train\nOverriding model.yaml nc=80 with nc=1\n\n                   from  n    params  module                                       arguments\n  0                  -1  1      2784  ultralytics.nn.modules.conv.Conv             [3, 96, 3, 2]\n  1                  -1  1    166272  ultralytics.nn.modules.conv.Conv             [96, 192, 3, 2]\n  2                  -1  2    389760  ultralytics.nn.modules.block.C3k2            [192, 384, 2, True, 0.25]\n  3                  -1  1   1327872  ultralytics.nn.modules.conv.Conv             [384, 384, 3, 2]\n  4                  -1  2   1553664  ultralytics.nn.modules.block.C3k2            [384, 768, 2, True, 0.25]\n  5                  -1  1   5309952  ultralytics.nn.modules.conv.Conv             [768, 768, 3, 2]\n  6                  -1  2   5022720  ultralytics.nn.modules.block.C3k2            [768, 768, 2, True]\n  7                  -1  1   5309952  ultralytics.nn.modules.conv.Conv             [768, 768, 3, 2]\n  8                  -1  2   5022720  ultralytics.nn.modules.block.C3k2            [768, 768, 2, True]\n  9                  -1  1   1476864  ultralytics.nn.modules.block.SPPF            [768, 768, 5]\n 10                  -1  2   3264768  ultralytics.nn.modules.block.C2PSA           [768, 768, 2]\n 11                  -1  1         0  torch.nn.modules.upsampling.Upsample         [None, 2, 'nearest']\n 12             [-1, 6]  1         0  ultralytics.nn.modules.conv.Concat           [1]\n 13                  -1  2   5612544  ultralytics.nn.modules.block.C3k2            [1536, 768, 2, True]\n 14                  -1  1         0  torch.nn.modules.upsampling.Upsample         [None, 2, 'nearest']\n 15             [-1, 4]  1         0  ultralytics.nn.modules.conv.Concat           [1]\n 16                  -1  2   1700352  ultralytics.nn.modules.block.C3k2            [1536, 384, 2, True]\n 17                  -1  1   1327872  ultralytics.nn.modules.conv.Conv             [384, 384, 3, 2]\n 18            [-1, 13]  1         0  ultralytics.nn.modules.conv.Concat           [1]\n 19                  -1  2   5317632  ultralytics.nn.modules.block.C3k2            [1152, 768, 2, True]\n 20                  -1  1   5309952  ultralytics.nn.modules.conv.Conv             [768, 768, 3, 2]\n 21            [-1, 10]  1         0  ultralytics.nn.modules.conv.Concat           [1]\n 22                  -1  2   5612544  ultralytics.nn.modules.block.C3k2            [1536, 768, 2, True]\n 23        [16, 19, 22]  1   8323187  ultralytics.nn.modules.head.Segment          [1, 32, 384, [384, 768, 768]]\nYOLO11x-seg summary: 379 layers, 62,051,411 parameters, 62,051,395 gradients, 319.7 GFLOPs\n\nTransferred 1071/1077 items from pretrained weights\nTensorBoard: Start with 'tensorboard --logdir w16_241class1_24bkg_251b1pL_500w10b2_934w11b3_431w12b4_dummy2500train50val_imgsz1280ep600/train', view at http://localhost:6006/\nFreezing layer 'model.23.dfl.conv.weight'\nAMP:
…
                                                            \r\nOverriding model.yaml nc=1000 with nc=3                                                                                                                       \r\n                                                                                                                                                              \r\n                   from  n    params  module                                       arguments                                                                  \r\n  0                  -1  1      2320  ultralytics.nn.modules.conv.Conv             [3, 80, 3, 2]                                                              \r\n  1                  -1  1    115520  ultralytics.nn.modules.conv.Conv             [80, 160, 3, 2]                                                            \r\n  2                  -1  3    436800  ultralytics.nn.modules.block.C2f             [160, 160, 3, True]                                                        \r\n  3                  -1  1    461440  ultralytics.nn.modules.conv.Conv             [160, 320, 3, 2]                                                           \r\n  4                  -1  6   3281920  ultralytics.nn.modules.block.C2f             [320, 320, 6, True]                                                        \r\n  5                  -1  1   1844480  ultralytics.nn.modules.conv.Conv             [320, 640, 3, 2]                                                           \r\n  6                  -1  6  13117440  ultralytics.nn.modules.block.C2f             [640, 640, 6, True]                                                        \r\n  7                  -1  1   7375360  ultralytics.nn.modules.conv.Conv             [640, 1280, 3, 2]                                                          \r\n  8                  -1  3  27865600  ultralytics.nn.modules.block.C2f             [1280, 1280, 3, True]                                                      \r\n  9                  -1  1   1644803  ultralytics.nn.modules.head.Classify         [1280, 3]                                                                  \r\nYOLOv8x-cls summary: 183 layers, 56145683 parameters, 56145683 gradients                                                                                      \r\nTransferred 300/302 items from pretrained weights                                                                                                             \r
…
